data.pth (torch, 19735 bytes, 6 tensors)

l1.weight f4 [8, 364]
00000000: bb5b ec3e f83c 113e 705d 0f3e 81bd 9b3d
00000010: 416a d13e 0295 d53e 457e cc3e c46e 08be
00000020: aa89 0d3f 604b 763e c520 cbbe 62d3 1d3f
00000030: 6ed2 4e3f b7ec 763f a212 853e 79be 23be
00000040: f57b 413d 11b6 10be f12c 263e c3ed be3d
00000050: f935 d9be 0f6e 3d3f 84c9 09be 1018 f53e
00000060: 11c7 e33d ceca c03e ce70 be3d 0634 c33c
00000070: 2606 ec3d fb4d 9f3e 77ae d63e 541c 83be
00000080: d423 863e b9c6 b03f 583c 6bbe d85c 0fbe
00000090: 5fae ef3e 5fd3 653f d661 bf3e 7d6f 87be
000000a0: 56c2 293e 5cc3 c33d ac17 183b 9552 883c
000000b0: 501b ca3e c37b 1d3e 32d2 6c3f e6a4 0f3e
000000c0: 3971 913e acfa 79bd 5577 193d 964e 123d
000000d0: 48c0 243d 7c65 003f f7dc 2b3e a7be 2a3e
000000e0: f35b 4ebd 29dd ad3d 77a1 ee3d f9a3 fe3e
000000f0: 2113 113f 90bf cdbe a58a e5bd da1b 13bf
00000100: 6aed 14bf 68d8 013f f915 1b3f d563 dbbe
00000110: 5305 113e 2e66 363e be36 17bd b553 af3e
00000120: fa2c bc3c 3494 84bc afdb 913d 170d 99bc
00000130: 793b 19be 0376 033f 5db8 ac3d 492f 313f
00000140: 577c 053f dc2d 36bf a092 c83d 769e e03e
00000150: 58ba a73f 3d28 8a3e e9a1 8a3d 9706 1b3f
00000160: d2c7 b03e a7bd 933d 0302 ebbc cca4 483d
00000170: dc3d 1c3f 4223 813f 1bfa fc3b ffa8 07be
00000180: f5dd 01bf edd3 553f f542 ae3f e9bc 9b3d
00000190: 2cdf 043f 5514 f83e e8fe dd3e 1215 6e3e
000001a0: e09f 4c3f 576c 053e 0848 b23b b868 a23e
000001b0: 320a 533f 384c 433d 73ee 60bc 9159 b9bd
000001c0: a34d 82be 73fa 993f 01f5 ccbd e6dc 043f
000001d0: 7c71 c53e ec90 87bd 480f 493e 8985 783e
000001e0: d7b4 be3d 6f20 053f 2fa5 ee3e 1872 21be
000001f0: af90 c93e 6865 ed3e d3c5 643f ac08 1e3f
00000200: 692e 21bf f95d 453f 2f7d e7bd 2f71 653d
00000210: 0f8d b13d db4f 27bf d232 013e 40b9 9d3d
00000220: 2885 b7be 87ff 533d 729a 8abc 0bdd de3d
00000230: 98b3 2b3f efbf f83e 0e2d b13e 8ff7 cfbd
00000240: 8cdf a53b d06b a4be 7f2a debe 07cf 69bf
00000250: 5ab9 debe 4bcf 8dbe 3d8d ee3e b2b2 463e
00000260: 72fb c2be 0209 c33d fe28 363e 5dae 1a3f
00000270: 19ff b33e c05a 413f 6c37 963d 7034 d73e
00000280: 88ac 813e bdcc dbbe 5c21 63be befc ccbd
00000290: 400a 0b3e ff96 f33e 1bfb 2e3f 210f bc3e
000002a0: 2bda 0b3f df8c 963e 3f2a a33e d664 01be
000002b0: 8f18 99be 452c 0d3f 036f c63d 7724 9e3e
000002c0: 580a 4d3e fa73 043e f5e2 1c3d 2312 903f
000002d0: ef4d 493f ebbf d93e 6efc 063f 2500 42bd
000002e0: 6e04 96be 5858 c33d 23cb ddbd b32e 823e
000002f0: 08ef d03e 6961 203e ab0c b23e 65c4 e1bd
00000300: 2c2f 1abe 386b 833d e1e2 0ebf bc97 c43e
00000310: 463b 873e bb4e f5bd 5dea c8be 30cb 82be
00000320: 35fb 563e 92e7 48bd da9f 1f3f 53a3 8d3e
00000330: 8738 263e 8690 febd d49f 3d3f 72eb dbbe
00000340: 99d5 103f 9857 803b e490 8a3f 55a8 053e
00000350: 3c3a 423f 94b2 383f 076c 033f a994 2b3d
00000360: 865b bb3d 868e b33e 9e28 333f f2ff a83e
00000370: 8bd8 09be c7f1 983e 7123 bf3e 8464 113f
00000380: 59a5 943e 988d 8abd aa9c 3abf fdab 5bbe
00000390: b06d 0c3f 0a8e 513e 08db 083f cf06 2a3e
000003a0: 0efb c43f 4890 843e fa1b 093f f364 653e
000003b0: 0946 583e d446 d53e 4f6e 6d3e 35d8 a73d
000003c0: 6591 e2be d8f3 d93e a64a 0fbe 5a21 6dbe
000003d0: 312a d63e 9138 a23d 560e c0be ebc1 9c3e
000003e0: 3735 fe3b 2e19 133e fe99 22be 4cfc f8bd
000003f0: 45ff ab3e a1bd f73d 7548 a13e ef5d 073e
0.46163735 0.14183414 0.14000487 0.076045044 0.40901378 0.41715246 0.39940086 -0.13323504
0.55288184 0.24052191 -0.3967344 0.6165067 0.8078984 0.9645495 0.25990778 -0.15990628
0.047237355 -0.14131953 0.16228081 0.09322693 -0.4242399 0.7399606 -0.13455778 0.4786992
0.11121953 0.37654728 0.092988595 0.023828518 0.1152461 0.31114182 0.4192998 -0.2560755
0.2619921 1.3810645 -0.22972238 -0.14000261 0.46812722 0.8977565 0.3737933 -0.26452246
0.1657804 0.09558746 0.002320747 0.01664094 0.39473963 0.15379243 0.9250823 0.14027748
0.28406695 -0.061030075 0.03746732 0.035719477 0.040222436 0.5015485 0.1678351 0.1667429
-0.05038066 0.084894486 0.11651891 0.49734476 0.56669813 -0.40185213 -0.11208085 -0.57464373
-0.58174765 0.50720835 0.605804 -0.42849603 0.14162187 0.17812416 -0.03691744 0.3424355
0.022970665 -0.01618395 0.071219794 -0.018683 -0.14964093 0.51351947 0.08433602 0.69212776
0.5214285 -0.71163726 0.097935915 0.43870896 1.3103743 0.26983824 0.06769163 0.6055693
0.3452745 0.07213908 -0.028687483 0.048985288 0.6103189 1.0088885 0.0077202446 -0.1324806
-0.50729305 0.835265 1.3614184 0.07604391 0.51903033 0.48453012 0.4335854 0.23250225
0.7993145 0.1302961 0.0054407157 0.3172052 0.8243743 0.04768011 -0.013728726 -0.090502866
-0.25449857 1.2029556 -0.10007668 0.51899564 0.38563144 -0.066194385 0.19634736 0.2426969
0.09311836 0.52002615 0.466104 -0.1576618 0.39368197 0.4636643 0.89364356 0.6173198
-0.6296144 0.77096516 -0.11303174 0.056016143 0.08669483 -0.65356225 0.12617043 0.07701349
-0.35843778 0.05175736 -0.016919348 0.10882004 0.67070913 0.48583934 0.34604686 -0.1015464
0.0050620493 -0.32113504 -0.43391797 -0.91331524 -0.43500787 -0.27697214 0.4659213 0.19404104
-0.38082463 0.095232025 0.17789075 0.6042231 0.35155562 0.755291 0.0733479 0.42032194
0.25326943 -0.4292964 -0.22180694 -0.10009144 0.13578129 0.47576138 0.68351907 0.36730292
0.5462977 0.2940435 0.3186817 -0.12636122 -0.2990155 0.55145675 0.096891426 0.30887195
0.20023477 0.12934867 0.03830238 1.1255535 0.7863454 0.42529234 0.5272893 -0.04736342
-0.29300255 0.095383346 -0.10829761 0.25426254 0.40807366 0.15662159 0.3477529 -0.110237874
-0.15057057 0.06416935 -0.5581494 0.38397014 0.2641241 -0.11977907 -0.39241305 -0.25545645
0.20994265 -0.049048968 0.6235329 0.2766367 0.16232501 -0.124299094 0.74072003 -0.42953068
0.56575924 0.003916692 1.0825467 0.13052495 0.7587011 0.7214749 0.5133671 0.04188982
0.09148316 0.35069674 0.6998385 0.3300777 -0.13461511 0.2987196 0.37331727 0.56794
0.290324 -0.06765288 -0.728953 -0.21452327 0.5485487 0.2046434 0.53459215 0.1660416
1.5389116 0.25891328 0.53558314 0.2240179 0.21120466 0.416556 0.2318661 0.08195535
-0.44251552 0.4256885 -0.1399332 -0.23157254 0.41829064 0.079209454 -0.37510937 0.30616698
0.0077578085 0.14365074 -0.15879056 -0.12157497 0.33593193 0.12096716 0.31500593 0.13219427

l1.bias f4 [8]
00000000: 7a2a cd3f a49a 0440 184e ec3f 8b35 d53f
00000010: fed1 2f40 1c5f 1140 4193 c63f 3312 ce3f
1.6028588 2.0719385 1.8461332 1.6656965 2.747192 2.27143 1.5513688 1.6099304

l2.weight f4 [8, 8]
00000000: 2c5f a3bf 2a12 2040 a9b8 ba3f 2bf4 573e
00000010: f4a3 c93f 1726 813f a8d1 1040 99c9 e23c
00000020: 69c8 2640 0b57 133e 8199 813f 1414 0a40
00000030: d104 3540 0ecc de3e eed7 4abf 9eee 883f
00000040: 6bdb 1d40 8880 0840 e757 7bbf 228e d53f
00000050: 4a93 1d40 9838 c0bf bbbe 1d40 2ef5 b13e
00000060: 7e5d f0be 5cd0 553f 7e57 1940 f668 0d3f
00000070: 3236 2f40 3c2f 7f3f 91a9 0c40 b8f4 58bf
00000080: 818d 3f40 6162 1340 9fe7 4d3f a105 06bf
00000090: 5041 233f 01f1 f53f 0ddc 013f a356 773e
000000a0: 2edb 2e3f 1d68 5b40 5246 90bf c2c9 0a40
000000b0: bcb4 803f 8e6e 1b40 f5c3 2240 a6c2 e63f
000000c0: e2f2 1c40 2270 de3d 673a 5e40 e5b9 2640
000000d0: 33fd 203f 8433 5740 dfd7 3c3d a48f 4e40
000000e0: 37af c23f 6b19 e53f cbab ab3f 23e8 d7bf
000000f0: 822b 993f b453 983f a4fe 6b3e a1b2 72bc
-1.2763419 2.5011086 1.4587604 0.21089236 1.575316 1.0089749 2.2627964 0.02768402
2.605982 0.14388673 1.0124971 2.1574755 2.828419 0.43515056 -0.7923573 1.069782
2.4665172 2.132845 -0.98181003 1.6684 2.4621148 -1.5017271 2.4647663 0.3475737
-0.4694633 0.83521056 2.395965 0.5523828 2.7376828 0.9968145 2.1978495 -0.8474841
2.9930117 2.3028796 0.8043155 -0.5235234 0.63771534 1.9214174 0.50726396 0.24154143
0.6830319 3.4282296 -1.127146 2.1685643 1.0055156 2.4286227 2.5432103 1.8028152
2.4523244 0.108612314 3.4723146 2.605096 0.6288635 3.3625193 0.04610431 3.2275171
1.5209721 1.7898382 1.3411802 -1.6867718 1.1966403 1.1900544 0.23046356 -0.014813096

l2.bias f4 [8]
00000000: 9d42 6d3f 48e3 8f3f 1a19 ee3e 794a b63f
00000010: f6e5 a23e f1b0 463f 8988 873f cd6a a23e
0.9267977 1.1241236 0.46503526 1.4241477 0.3181607 0.7761374 1.0588542 0.31722108

l3.weight f4 [16, 8]
00000000: 0edb 11be 7b45 73bf ef15 36be 3b6c 88be
00000010: 1e16 cebf ba7e 96bf 2dbb 1abf 8e04 86bf
00000020: 5279 6fbf 6a8f 833e 3824 f43d d448 31be
00000030: e1f1 053c 4ef8 4fc0 1944 9bbf 206d 073d
00000040: 7420 07c0 0169 213f 1dda 5ebf a1bb 29c0
00000050: 1929 9fbf e385 9fbf 840b 7b3f a6eb dcbf
00000060: 02a0 1fbf 2d1f 26bf e25e 193f e041 d5bf
00000070: f9d6 64be 1156 68be 9401 01c0 ca37 8abf
00000080: fd4e 70bf 58cb 1bbf 94b8 89bf aacc e5bf
00000090: 55c0 a83d b7fe 7abf 75a4 48bf 7711 b83e
000000a0: 4ecc ef3e 6cd5 0cbe d26f cd3b 39ca 773f
000000b0: a578 48c0 3df8 37c0 6536 80bf 08e5 e93d
000000c0: 9d57 123f 4f2b 3ac0 145d 4bc0 e3d6 26bf
000000d0: 6a19 5dbf 0797 703e bafa ee3d 5e38 aabe
000000e0: 0899 02bc 08e2 37bc 9065 1cc0 cba4 023e
000000f0: 6457 57c0 9c05 21bf 0970 183f 3421 0ac0
00000100: 26d0 d23e 64c4 1dc0 dd69 23bd 8f3e 243f
00000110: 4a3b 52bf 21b4 1abf 0cd9 20c0 e38a a43e
00000120: 78eb 843e a298 97bf 7495 3dc0 c3bb 6a3f
00000130: b481 9dbc e4ab 12c0 f744 2ebf a178 d73e
00000140: 1195 7f3e 275d 03be c6de d03e 1597 f93e
00000150: e146 63c0 d71e 8c3e ca40 1fc0 c270 ddbf
00000160: 9cee 36be 40a5 32c0 0eaf 52bf d824 a3bf
00000170: 41e4 103f d04d 1bbe 8d3d a3bf 727c 4b3e
00000180: e72d e1bf 08d3 93bf 8e71 60be e5b6 11c0
00000190: 7619 e1be 6dcc 913e 3daf 783c b0fe 07c0
000001a0: 130a ce3e 4379 f4bf c136 43be 7775 9bbf
000001b0: 76e8 3ec0 c273 843f 4af8 f8be 1c07 08c0
000001c0: 87f6 ecbf 3538 97bd 34e7 0fc0 f165 5ebf
000001d0: 1b4e 9f3e 935c 34c0 afee f23e 7e74 973e
000001e0: 8bfc eebf 2b07 803f 9977 523f 87c6 97bf
000001f0: c333 1dc0 28d9 7dbf bb56 0ebf 525b 01c0
-0.14243719 -0.95027894 -0.17781805 -0.26645073 -1.61005 -1.1757424 -0.6044186 -1.047014
-0.93544495 0.25695354 0.11920971 -0.17312938 0.008175344 -3.2495303 -1.2130157 0.033063054
-2.1113558 0.6305085 -0.87051564 -2.652077 -1.2434417 -1.2462734 0.98064446 -1.7259414
-0.6235353 -0.6489132 0.59910405 -1.6660728 -0.2234763 -0.22689082 -2.0157213 -1.0798275
-0.93870527 -0.6085715 -1.0759454 -1.7953084 0.082398094 -0.98044914 -0.7837594 0.35950825
0.4683556 -0.13753289 0.0062694335 0.9679294 -3.1323636 -2.8745263 -1.00166 0.11420637
0.5716494 -2.9088933 -3.177556 -0.6517164 -0.86366904 0.23495112 0.11668916 -0.3324613
-0.007971056 -0.011223324 -2.443699 0.12758176 -3.364709 -0.62899184 0.5954595 -2.1582766
0.4117443 -2.4651117 -0.03989588 0.64157957 -0.8212172 -0.60431105 -2.5132475 0.32137212
0.25960898 -1.1843455 -2.962247 0.9169275 -0.019226886 -2.2917414 -0.6807398 0.4208422
0.24959208 -0.12828504 0.40794963 0.4874808 -3.551201 0.2736728 -2.4883294 -1.7300036
-0.1786446 -2.791336 -0.8229836 -1.2745619 0.5659829 -0.15166402 -1.2753159 0.19871691
-1.7592133 -1.1548777 -0.21918318 -2.276788 -0.43964738 0.28476277 0.015178499 -2.12492
0.4024206 -1.9099506 -0.19063856 -1.2145222 -2.9829383 1.0347826 -0.4862693 -2.125434
-1.8512734 -0.073837675 -2.2484865 -0.868743 0.31114277 -2.8181503 0.47447726 0.29581064
-1.867082 1.0002187 0.8221374 -1.1857461 -2.4562843 -0.9915948 -0.5560109 -2.0211987

l3.bias f4 [16]
00000000: 51d0 93be 6c74 f1bd 7e15 6abd ef86 aabe
00000010: dfb1 5cbe a843 2fbe fb1a 2abd a1ba 743e
00000020: 3c1f bc3d e194 6a3e 7961 c0bd 22db fbbd
00000030: f1e6 6dbe 15cb ecbd aa6e 33bd 4f46 49be
-0.2886987 -0.11789784 -0.057149403 -0.3330607 -0.21552227 -0.17115653 -0.041529637 0.23899318
0.09185645 0.22908355 -0.093935914 -0.12297656 -0.23232628 -0.11562172 -0.04380671 -0.19655727
