data.pth (torch, 13079 bytes, 6 tensors)

l1.weight f4 [8, 217]
00000000: 80e0 763f a2af 10be 70ac 86be 7ca4 f63e
00000010: f471 573f 0fe3 b13d 24fc a03e 1417 85bf
00000020: 3a60 cdbd f5ab 03be 5da9 8a3e 697e 4cbe
00000030: 7b48 9b3e c89d 9d3e b7ec bc3e 2d26 81be
00000040: 3335 053f 5fb0 f53c c394 463f 3eb6 f0bd
00000050: fd5e 9f3e 6f7c cbbb 8a41 d3bc 3023 63be
00000060: bde0 ee3e 624c c83e 6f5f a23d 440f c2bc
00000070: 9663 14bf 6fde dcbc c1e2 253f 0f62 da3e
00000080: 697d eebe 3d6b 883f 8115 9b3e 652e 72bd
00000090: 1c36 933e e927 1abd c767 6cbf de82 7c3e
000000a0: 3982 5b3d 0381 663e 262a 193f 05dd f03e
000000b0: 87b8 aabf 0169 2bbe 750e 0bbd bf5c 0cbf
000000c0: 2b71 383f a214 803f c8f8 6c3c 78e2 9e3e
000000d0: b9f2 84bf 31b2 3fbe 1446 b4be 22ea b33d
000000e0: d823 abbe 3f26 7a3c 4431 883e 7da9 dd3d
000000f0: 6a09 6abd c534 4e3f 7d74 d63e 59d0 a5bf
00000100: 4a38 5c3e a4b1 903e fe6a 273e 60e5 84bd
00000110: 25d1 8d3e f53e 67bf 4e01 3cbf 95a5 7bbc
00000120: be72 8dbe d747 f5be 11e7 033f 9953 603f
00000130: 96af 123f 65c7 c03e 14c9 043f 5b8d 9dbe
00000140: f3e7 fa3e 101f da3e f0e6 3ebe cf0d 083f
00000150: 32bd b63e 56b7 0a3f 23be 033f 38f1 003e
00000160: b1de 063f d91d 85bf 5234 313e cf9b de3c
00000170: 9c57 39be 9b15 85bf 2412 b9bd 494d a53e
00000180: 4b33 84be 7be4 813e 44aa 0b3f 2d60 18bf
00000190: ac56 e93e 6a99 c83e 54b8 0abf ff83 403e
000001a0: 16a9 723e 0035 913c 4019 dabd 8281 e4be
000001b0: 8288 1e3f 0542 3a3e d04c bbbd f425 e2bd
000001c0: 4cc0 373c 850b f0bd 5ce4 a4bd 04ab 7a3e
000001d0: 6443 bf3d 8231 a93e 1c95 a73e 1ed9 d73d
000001e0: 2784 d8be 588f c83e 82b3 203f b85d 07bf
000001f0: 46e7 14bd 466d 96bd af7c b93e 1085 f13e
00000200: 0ecc dd3e 42fe 22bf 7f34 043f 1c20 9a3d
00000210: 69dd b3bd 2aff 283e 0041 f5be 410d 923e
00000220: f5fd f93e cbdc d33e 97a3 c3be 1f00 0c3d
00000230: e0f0 043e 7edd b93d c2ee 8abd 2758 f83e
00000240: fb5f 9dbe a138 99be 1c60 03bd eebe 223f
00000250: 6789 63bf faed 003f 45dc 8ebf d166 acbe
00000260: c0fc 3bbd e8fa 5a3d 3ae7 00be 8ecc b7bc
00000270: 8aca 2ebd fa23 4e3f 9bc2 3b3e 2c8f fc3e
00000280: c252 3bbe 4963 b83c bac5 b43d 6c88 fc3e
00000290: de8b ea3d 8510 c1be 8891 9ebe 711c 85bf
000002a0: e277 d63c f3bc f9be 067b aa3e 5fe0 82bd
000002b0: 194d eebd a38e 7dbf 965b f63d fd3b 02bf
000002c0: 39c9 93be 8c03 bebe 7eef 07bf cefa 36be
000002d0: 92f8 95bd 1b54 7a3f 65bb 8f3f d434 633f
000002e0: cf5a 273e 84c3 283f d039 89bc e47a 28bd
000002f0: 1b17 39bd 9b80 57bd 55ab d73d f21a 043f
00000300: 6101 a03e 981e 823e 719c b93f ea85 ef3e
00000310: 53c9 db3e 0500 c4be 9b45 723b 3831 e13d
00000320: 5acd 2d3f a652 023f 8e63 6d3d dbbe 31be
00000330: 4b5d 9b3d 4825 533e bcaa 70bd 431a 78be
00000340: 8f25 45be 4e82 67bd efac 81bd 42f6 f33d
00000350: c846 95bd e8ab c73c 43b9 d8bb aaa1 ed3e
00000360: 9214 903e 19ea bf3e d9bd 423e 5215 3a3e
00000370: 5df8 673f 227c 963e 45cb 32be f8b3 913d
00000380: f346 33bf 1035 0b3f 0111 5dbe b8c3 60bd
00000390: 4fe2 12be 3078 933e 66b6 9f3e 1083 cfbd
000003a0: b345 803e 89c5 7b3e ca1c 2e3e f015 2c3f
000003b0: afb5 aa3d 63e0 823e fa4b 013e 5966 be3e
000003c0: 1f1c 2d3f 8f27 223e 04e2 963e 9c8d e23d
000003d0: a4d7 72bc a3d9 9ebe 23d7 8b3e 1a7b 10bf
000003e0: 870f fc3d eb86 ec3d 50a9 d9be 26f1 8dbe
000003f0: 360d aabc 84d8 81bd 6d8a 4f3e 7167 5cbf
0.9643631 -0.14129499 -0.26303434 0.48172367 0.84158254 0.08685886 0.31442368 -1.0397668
-0.100281194 -0.12858565 0.2708234 -0.19970097 0.30328736 0.3078444 0.3689935 -0.25224438
0.520343 0.029991327 0.7757074 -0.1175351 0.31127158 -0.006209902 -0.025788087 -0.22181392
0.46655837 0.39120775 0.07928359 -0.02368892 -0.57964456 -0.026961533 0.64799124 0.42652938
-0.46580055 1.0657727 0.30289844 -0.059126277 0.2875222 -0.037635718 -0.9234585 0.24659297
0.053590987 0.22510152 0.5982994 0.47043625 -1.3337563 -0.16739275 -0.033949334 -0.5482902
0.7204768 1.0006297 0.014463611 0.31032157 -1.0386573 -0.18720318 -0.35209715 0.08784892
-0.33425784 0.015267908 0.26600087 0.10823343 -0.057137884 0.8054927 0.41885749 -1.2954208
0.21505848 0.2826053 0.16349408 -0.06489062 0.27698627 -0.9033044 -0.7343949 -0.015359302
-0.27626604 -0.47906372 0.51524454 0.8762756 0.5729917 0.37652126 0.5186932 -0.30771908
0.49005088 0.42601824 -0.18642783 0.5314607 0.3569122 0.54186 0.51462 0.12592018
0.5268355 -1.0399734 0.17305115 0.027173905 -0.18099827 -1.0397218 -0.09036663 0.32285526
-0.25820383 0.2536963 0.5455668 -0.5952175 0.45573938 0.39179546 -0.5418751 0.18800353
0.23697314 0.017725468 -0.10649347 -0.44630057 0.61927044 0.18189247 -0.0914551 -0.11042395
0.011215281 -0.11720947 -0.080513686 0.244793 0.093390256 0.33045584 0.3273095 0.10539459
-0.42288324 0.39171863 0.6277391 -0.5287738 -0.036353372 -0.07345061 0.3622794 0.4717183
0.43319744 -0.63669217 0.516426 0.075256556 -0.08782465 0.16503587 -0.47901154 0.28525737
0.48826566 0.4137939 -0.38210747 0.034179803 0.12982512 0.090754494 -0.06783821 0.48504755
-0.3073729 -0.29926017 -0.03207408 0.63572586 -0.88881534 0.50363123 -1.1160971 -0.33672193
-0.045895338 0.05346194 -0.12588206 -0.022436406 -0.042673625 0.80523646 0.18335955 0.4932798
-0.18293288 0.02250828 0.08826776 0.49322832 0.11452459 -0.37707916 -0.30970407 -1.0399305
0.026180211 -0.4877697 0.33296984 -0.06390452 -0.11635799 -0.9904577 0.120291874 -0.50872785
-0.28864458 -0.3711208 -0.5309981 -0.17869112 -0.07322802 0.97784585 1.1229063 0.88752484
0.16343234 0.65923333 -0.0167512 -0.041132823 -0.04518805 -0.052612882 0.10530726 0.51603615
0.31251052 0.25413966 1.4500867 0.46781856 0.42927036 -0.38281265 0.0036967758 0.10995716
0.67891467 0.5090736 0.05795627 -0.17357962 0.075861536 0.2061969 -0.058756575 -0.24228768
-0.19252609 -0.056520753 -0.063318126 0.11912204 -0.07288891 0.024373963 -0.006613882 0.46412402
0.28140694 0.3748329 0.19017734 0.18172196 0.9061335 0.2939158 -0.17460354 0.071144044
-0.70030135 0.5437784 -0.21588518 -0.054874152 -0.14344142 0.28802633 0.31193846 -0.1013242
0.25053176 0.24587072 0.1700317 0.67220974 0.08335435 0.25561818 0.12626639 0.3718746
0.67621034 0.15835403 0.2946931 0.11062166 -0.014821921 -0.3102542 0.27312574 -0.5643784
0.12307649 0.11549171 -0.42511988 -0.27723044 -0.020758253 -0.06340125 0.20267649 -0.8609534

l1.bias f4 [8]
00000000: 4b1f 853f a33e 333f 93c4 503f b8e4 a03f
00000010: ea9c 793f ddcb 8e3f 0b5b bf3f 0fb4 213f
1.0400175 0.7001745 0.8154995 1.25698 0.97505057 1.1155964 1.4949659 0.6316537

l2.weight f4 [8, 8]
00000000: 0b95 5cbf 36ae 953f 4ae8 25c0 4926 e13f
00000010: be8c 813f e075 0140 9550 823f aad4 c1bf
00000020: c540 8f3f d1a6 e9bf 40f2 7a3f a88b 2d40
00000030: f8d2 26bf b4dd 593f ee05 6b3f 783d f6be
00000040: 0781 7b3e d58c 98be c88e 9ebd d59f 073e
00000050: 77ba 7fbd 71ff 12be 0afa a1be bc6b b53d
00000060: 06b9 cd3e 5848 0f40 fdec 903f cb02 f73f
00000070: de51 47be dafd f5bf e111 d83f 9f5e 333c
00000080: d270 983f fc82 a53f fdf2 51bd 9725 0ac0
00000090: 37da e4bd 4ab2 413e 2108 8e3f 8825 1540
000000a0: abd5 a8bf c7d1 b4bf eae1 403f f9a5 1bbf
000000b0: ecbc babd 8592 be3f be9e ea3f eaad 143f
000000c0: 52a0 ba3f c516 0040 2749 74bf 3363 c2bf
000000d0: c2b8 afbf 2976 17be b059 e93f a032 0c40
000000e0: 3c72 2840 b34a 98be 5dfb a33f 7444 1b3e
000000f0: e0ca 5440 402b af3f f11d b5bf cd2f 503f
-0.8616492 1.169379 -2.5923028 1.7589809 1.0121076 2.0228195 1.0180842 -1.5143025
1.1191641 -1.8254033 0.98025894 2.711649 -0.6516566 0.8510392 0.91805923 -0.48093772
0.24560939 -0.29794946 -0.07742077 0.13244565 -0.062433686 -0.14355256 -0.31636077 0.08858439
0.40180224 2.2387905 1.1322323 1.9297727 -0.19464824 -1.9218094 1.6880456 0.010947852
1.190943 1.2930598 -0.051257122 -2.1585443 -0.11174434 0.18915668 1.1096231 2.3304157
-1.3190206 -1.4126519 0.7534472 -0.6080013 -0.09118065 1.4888464 1.8329694 0.5807787
1.4580176 2.0013897 -0.9542412 -1.5186523 -1.3728259 -0.14791168 1.8230495 2.19059
2.6319723 -0.2974449 1.2811085 0.15162832 3.3248825 1.3685074 -1.4149762 0.8132294

l2.bias f4 [8]
00000000: bd1d 283f a122 393f 78d7 98be 8b00 733f
00000010: eac0 063f f51d 693f 8c6e 793e b9f0 133f
0.65670377 0.72318465 -0.2985189 0.94922704 0.52638113 0.91061336 0.24358577 0.5778919

l3.weight f4 [19, 8]
00000000: 3f9c 203d b990 4fc0 c5c4 043d 3586 3fbf
00000010: b0c4 f73e beae 03bf fb77 733e f9d6 183e
00000020: 7594 15c0 37ed eabf 2080 14be 56a2 7ebf
00000030: be58 2d3f 66dc 01c0 2012 b8bd 0b96 413f
00000040: 654f 4a3f 6644 58bf 1e49 47be b8ee 17c0
00000050: 3ceb a1bf 6df2 b73f 8417 2ac0 42ad 833e
00000060: a28c e2bf ee7c a5bf b0f4 273e 82fd 4f3f
00000070: 835c 403f d19f 16bf 1c92 753f 2c21 2bc0
00000080: 7c8f f6bf ecd3 f33d 800a 8e3e f603 04c0
00000090: 005e 55bd b3db 2f3e a192 87bf 5418 403f
000000a0: 207e 39be 9b0f cbbe 0cc6 cbbd 9614 22c0
000000b0: 2d3c 49bf b0ab e8bf dad7 01c0 a479 883f
000000c0: 52ff 82be 56c0 0dc0 d088 4a3d a742 083f
000000d0: b664 863d df31 5e3d 9830 20c0 65ea e23e
000000e0: 74e7 c53e 3e5d 01bf c720 c4bd 2453 07bf
000000f0: cc4b 91be ba28 ae3e d577 d6be ff7d 96be
00000100: b033 493f cf99 2e3f d906 833e 3796 22bf
00000110: 1e8e 0dc0 942c a4bf a696 d7bf db6f 773e
00000120: 8df5 d2bf 79e2 25be 5517 84be 61ae 213f
00000130: 4e58 9bbe b83f 133f 2f45 b73d c551 86bf
00000140: 0c2b a53f 4961 3f3f 482a 68be f2c8 3bbf
00000150: 607d 06c0 f983 393f a33e 05c0 2eec 0ac0
00000160: b316 08c0 ef16 92be 2e47 6fbe 2003 aebf
00000170: f1b2 293f 3d32 913e e596 383f f7c8 98be
00000180: 13fc c83d af33 393d d2f3 123e c114 36bf
00000190: d520 a0bc 6241 b33f 717a 5d3c 4021 26c0
000001a0: 9f62 0cc0 e0f6 543f e482 23be b81e 333f
000001b0: 98c1 95bf 571e b6bf b36f e8bf ca7f 0a3e
000001c0: b907 003f d3f2 16c0 f7ef 90be 93c7 903d
000001d0: 39ca 903d 76ac 143e 9613 173f 2445 f1bf
000001e0: 5efe 0cbf ccc3 193f 6c08 663e 5739 6c3f
000001f0: f00b 09c0 fd56 1c3f 5795 afbf 5714 0dc0
00000200: 84a3 3bbf 4e99 18bf 7aed 7a3e 2319 c13e
00000210: 5dd8 cbbc 9f36 2ac0 956b b33d eb64 2a3e
00000220: cc70 1dc0 968f 3ec0 94e2 cb3b f933 c63e
00000230: 2120 463f 6342 01c0 df45 3a3f 62c6 93be
00000240: c89b 403f a9fc dabe bdfe 763e 1552 863f
00000250: cde4 95bf e362 afbf 70e3 fabb 99d0 c9bf
0.039211508 -3.2432082 0.032414217 -0.7481416 0.48392248 -0.5143851 0.23776238 0.14925756
-2.337186 -1.8353642 -0.14502001 -0.99466455 0.67713535 -2.029077 -0.08987832 0.7561957
0.79027396 -0.8447937 -0.19461486 -2.3739452 -1.2649913 1.4370857 -2.6576853 0.25718123
-1.7699168 -1.292875 0.16401935 0.812462 0.7514116 -0.5883761 0.9592607 -2.6738997
-1.9262538 0.11905655 0.27742386 -2.0627418 -0.0520916 0.17173652 -1.0591623 0.7503712
-0.18114519 -0.39660344 -0.09949884 -2.5325065 -0.78607446 -1.8177395 -2.0287995 1.0662122
-0.2558542 -2.2148643 0.04944688 0.53226703 0.06562178 0.05424678 -2.502966 0.44319454
0.38653147 -0.505329 -0.09576564 -0.5286124 -0.2837814 0.34015447 -0.418883 -0.29393002
0.78594494 0.68203443 0.25591162 -0.6351046 -2.2117991 -1.2826104 -1.6842849 0.24163763
-1.6481186 -0.16199674 -0.2579905 0.63156706 -0.3034081 0.575191 0.089487426 -1.0493704
1.2903762 0.7475782 -0.22672379 -0.73353493 -2.1014023 0.72467 -2.081948 -2.1706653
-2.1263855 -0.28533122 -0.23366997 -1.3594704 0.6628867 0.2835864 0.72105247 -0.29840824
0.09813704 0.045215305 0.14350823 -0.7112542 -0.019546906 1.4004328 0.013517962 -2.5957794
-2.1935194 0.831892 -0.159679 0.6996875 -1.1699705 -1.4228009 -1.8159088 0.1352531
0.50011784 -2.3585708 -0.2830808 0.07069316 0.07069821 0.14518914 0.5901426 -1.8849225
-0.55075634 0.6006439 0.2246415 0.92274994 -2.1413536 0.61070234 -1.371745 -2.2043664
-0.7329638 -0.59608924 0.24504653 0.3771449 -0.024883443 -2.6595838 0.08760754 0.1664006
-2.4600096 -2.9775138 0.0062220786 0.38711527 0.77392775 -2.019677 0.72762865 -0.28862292
0.75237703 -0.4277089 0.24120612 1.04938 -1.171045 -1.3702053 -0.007656507 -1.5766784

l3.bias f4 [19]
00000000: b0ba adbe c312 f2bd 9e5e 5f3d 4d97 96bd
00000010: c62b 263e ca98 973e c45b 893e 3c19 d7be
00000020: a535 84be c3cd 75be 0ee6 7e3e 6404 02bf
00000030: b45e b33e 6d87 1c3f 85fd d9bc 1a7c 553e
00000040: f961 8dbd b413 173d 3376 c83d
-0.33931494 -0.11819985 0.054533593 -0.07353077 0.16227636 0.29608756 0.26827824 -0.4201144
-0.25822178 -0.24004273 0.24892446 -0.5078795 0.3503319 0.61144143 -0.026610145 0.20848122
-0.069034524 0.036884025 0.0978817
