data.pth (torch, 13079 bytes, 6 tensors)

l1.weight f4 [8, 217]
00000000: daf4 4ebf 3928 cabc 36d8 aebe 1673 5b3f
00000010: bd71 2dbf e6b5 0fbe b7b7 c83e daf0 913f
00000020: 7d67 623e 686e 2dbd d1fa bfbe c9a9 f8bd
00000030: 14c8 643d 1841 6b3e c397 133f 8c70 ca3f
00000040: f703 e83e 9813 babc e5df f7be 806f be3e
00000050: 9e4a 493e 9d85 17bb 5891 60be d258 8abe
00000060: 5df0 d7be 389c 9fbd f29e 613e d757 303e
00000070: cf0b d53e fda7 493e 3f8a 49bf ee5c 2cbf
00000080: 3682 8c3e 082f 25be bb9e 85be 5e38 793e
00000090: df81 b3be 81d5 593e 1284 243f fcd8 cbbd
000000a0: 00fa a4bd 6742 ecbc 8419 84bd 47d8 1abd
000000b0: 3835 9f3f 0c7f 073e 9106 a53d 4e22 b63e
000000c0: 6dce 19bf 9b3c 90bf 0ce2 5c3e eb29 c33e
000000d0: ccd4 423f fc89 363e 73f7 b0bc 8d9f 11be
000000e0: b624 dc3e ecf4 823e a4f9 8fbd 600d a83f
000000f0: d1b6 153f a4e0 8e3e 7980 55be 18a7 ab3f
00000100: 288b bc3d 2c85 c23e 199e 063e 57cc c2bd
00000110: 9be9 babe 30a7 8d3d 76f3 54be a91c 4fbe
00000120: d349 c7bd 8bd6 b9be 074e 083f 6405 2e3f
00000130: 35de 5a3f 618c 2dbf 9a90 543f 3ae7 273f
00000140: 1873 393f abd8 1abe 7fc4 bbbd 9c94 533f
00000150: 9d40 b13e 3792 513f 5ee3 693f df47 5b3f
00000160: 48d1 493f af0f 963f 6f55 ea3d 9b0c 2c3f
00000170: 4db3 e63e 7bcc 823f c8da 203e 18e3 cb3d
00000180: be7c 613f 63da 70bc 6ba4 f7be f4b6 e7be
00000190: 6590 36bf 56cc dbbd e7f8 26bf 9027 c0be
000001a0: 8260 f63e 21cd 7abd 5053 c43d 33f7 09bf
000001b0: 9a5f 49bd bd10 94be d28d f4be 67cd 3d3e
000001c0: a545 7cbd e8ac a73e e08d 973e f617 b0be
000001d0: 0d03 a8be 3b23 cb3e ad4b d8be 14c2 33be
000001e0: 4f82 353f 2ce1 263f b979 59be 25af e03e
000001f0: 33af 773e 223e 523f cd52 48be 12fa 2ebf
00000200: 5ab0 20bf fdc4 133e 89e8 1abf dd88 043e
00000210: c491 0d3f 24fa 4e3e 34f4 cd3e ea03 2cbf
00000220: 7b50 fcbd b7c7 bdbd a6d5 ccbc ba0a 2eb9
00000230: e9aa 27be 6f57 2b3e 96d8 8ebe 0eea 75bf
00000240: 5791 f1bd de9a b83e d0b6 9a3e ec3f 3cbe
00000250: 68da 853e 3cd6 88be 123e 0fbf 87a7 90bd
00000260: e30b 3d3e cb0a a03e 2ee8 aabe de97 853e
00000270: a12d ad3e ed64 463f bdc0 a7be 7580 ab3e
00000280: 75d6 db3e c94b 53be cb48 6cbe eb54 4dbd
00000290: 91c7 4c3e 2145 afbe 7401 bf3e 23f2 8e3f
000002a0: 053c 98bd bc31 453e a270 f03e 5c45 143e
000002b0: be68 d73e 7e50 023f 6470 063e bdd0 9d3f
000002c0: f7c9 983e 5c09 1dbf b8f1 8b3f 61b9 393f
000002d0: 352a 8e3e c120 93bf 5f38 91bf 52de 18bf
000002e0: 77cc 3a3d 7fe5 e33d 5eae 0f3e cf32 d83d
000002f0: 206e 38bd dff4 b6bd 3409 dbbd 9e48 ab3d
00000300: d2a2 f8bc 52a5 dcbd d2ef 98bf b411 4abe
00000310: 5b06 4bbe f2ff 083f 7387 983e 698e 183e
00000320: 99c1 37bf 80ab 693e 60b6 d7be bea2 0a3e
00000330: 1604 803e 808e 74be f145 4d3f c290 04be
00000340: 7a51 babd 27d4 943e a70d 01bf f53c 933e
00000350: 13b0 f8bc 46c2 8c3e 86e8 8c3e e67d bd3e
00000360: b4ab 303f 0192 e83d 3d83 363e d3b5 023e
00000370: 3ab8 43be 46a2 87be c715 fcba 6700 6fbe
00000380: e5b8 6bbf e364 ed3e 747b ec3e 1aa3 2a3d
00000390: 3e8c 993e 6bb0 6d3e ba20 623e 1257 03bf
000003a0: 99f7 193f 9d0d 133d 925f 293e aede f2be
000003b0: 8784 cc3e 7f09 633e cfe3 183e 7eca 1f3f
000003c0: 6da1 6dbe c514 48bf c8d1 90be 178a 5b3e
000003d0: fe5b 733e ff72 7bbd cdf2 953e bbe3 803e
000003e0: c567 313f 1308 49be 63b5 07bf 12e4 aabd
000003f0: 53a8 913e 69b5 cd3c 639a a73e 8ab2 34bf
-0.80842364 -0.024677383 -0.3414933 0.8572248 -0.67751676 -0.14034232 0.39202663 1.1401627
0.2210979 -0.04234162 -0.37496045 -0.12141759 0.055854872 0.2297405 0.57653445 1.5815597
0.45315525 -0.022714421 -0.48413005 0.37194443 0.1965737 -0.0023120411 -0.21930444 -0.2702089
-0.4217557 -0.07793468 0.22033289 0.17221008 0.41610572 0.19692989 -0.7872657 -0.673293
0.27443093 -0.16131222 -0.26097664 0.24337909 -0.3506002 0.21272852 0.64264023 -0.09953496
-0.08055496 -0.028840257 -0.06450179 -0.037803914 1.2438116 0.13232058 0.08057893 0.35573047
-0.60080606 -1.1268495 0.21570605 0.38117918 0.7610595 0.17826074 -0.021602368 -0.1422102
0.42996758 0.25577486 -0.07030037 1.3129082 0.5848208 0.27905762 -0.2084979 1.3410368
0.092062294 0.37992227 0.13146247 -0.09511631 -0.36506352 0.06916654 -0.20795998 -0.20225777
-0.09730878 -0.36296496 0.5324406 0.67976975 0.8549531 -0.67792326 0.83033144 0.655872
0.72441244 -0.15121715 -0.09168338 0.82648635 0.3461961 0.8186373 0.9136256 0.8565654
0.7883496 1.1723536 0.114420764 0.67206734 0.4505867 1.0218652 0.15708458 0.09955424
0.88080966 -0.014700505 -0.48367628 -0.4525677 -0.7131408 -0.10732333 -0.65223545 -0.37530184
0.48120505 -0.061230782 0.09586203 -0.5389282 -0.04916344 -0.2891902 -0.4776445 0.18535386
-0.061589856 0.32749104 0.2960043 -0.3439328 -0.32814828 0.39675316 -0.42245236 -0.17554504
0.7090196 0.65187335 -0.2123784 0.43883625 0.24187927 0.8212606 -0.19562836 -0.68350327
-0.6276909 0.14430614 -0.6051107 0.12942834 0.55300546 0.20212609 0.40225375 -0.6719347
-0.12320038 -0.09266608 -0.02500422 -0.00016597929 -0.16373791 0.16732572 -0.27899617 -0.96060264
-0.117952995 0.36055654 0.302176 -0.1838376 0.26143193 -0.26725948 -0.55954087 -0.07063203
0.18461566 0.31258234 -0.33380264 0.26092428 0.33823875 0.7749775 -0.32764235 0.33496442
0.42937055 -0.20634378 -0.23074643 -0.050129812 0.19998004 -0.3423243 0.37305796 1.1167644
-0.07433323 0.19257253 0.46960932 0.14479584 0.420721 0.5090407 0.13128811 1.2329327
0.29841587 -0.61342406 1.0933142 0.7254849 0.27766576 -1.1494371 -1.1345328 -0.59714234
0.04560515 0.11127757 0.1403136 0.10556566 -0.0450269 -0.08933424 -0.10695115 0.0836346
-0.030351076 -0.1077372 -1.1948187 -0.19733316 -0.19826643 0.5351554 0.2979084 0.14898075
-0.7177978 0.22819328 -0.4213133 0.13538644 0.25003117 -0.23882484 0.8018485 -0.12945846
-0.09097572 0.2906811 -0.50411457 0.28757444 -0.030357396 0.2749197 0.2752115 0.37010115
0.69012 0.11355973 0.17823501 0.12764673 -0.19113246 -0.26490992 -0.0019232564 -0.23339997
-0.92079 0.46366033 0.46187937 0.041659452 0.2998981 0.2321183 0.22082797 -0.51304734
0.6014343 0.035901655 0.16540363 -0.47435516 0.3994486 0.22171591 0.14930652 0.62418354
-0.2320611 -0.7815669 -0.2828505 0.21439396 0.23765561 -0.061388966 0.29286805 0.25173745
0.69298965 -0.19631986 -0.5301115 -0.08344282 0.28448734 0.025110917 0.32734975 -0.7058493

l1.bias f4 [8]
00000000: 9392 873f 20f8 813f 2e4c 933f 9b19 903f
00000010: 72c5 5c3f 1bd2 953f 7497 8e3f 27a5 413f
1.0591606 1.0153847 1.1507623 1.1257814 0.8623878 1.1704744 1.113997 0.7564263

l2.weight f4 [8, 8]
00000000: e1ec df3e e4bc 8cbe c286 e3bd 4b58 a6bf
00000010: a55c e63f e626 8e3e 78f8 cb3e 8bb4 1240
00000020: e2f8 9dbf 606d 0f40 197a 3840 5822 a8bf
00000030: ee8c be3e 899c 4b3f 87e3 8f3e e0dc 9b3f
00000040: be1e 343f 49ce 0a40 c28f 8fbf 0907 e93f
00000050: 39de 573f 1a1d 3540 fa93 a1bf 5612 933f
00000060: ce51 ca3f aa2d 07c0 c1a1 cb3f 00e5 cf3f
00000070: 63c1 a3bf 7ed5 613f 6e9e 0d40 4299 ffbe
00000080: 77ac c0be 119a e5be bb8a c43f 3400 fd3f
00000090: 22c1 0940 516c d5bf adda 813f 637b 1b3f
000000a0: 0a81 39bf 31f7 27bf 2875 0540 f208 18bf
000000b0: c486 bcbe 33e0 273f be04 0740 134a 073d
000000c0: d5a7 413f e69d d23f 9401 853f eb72 c7be
000000d0: 6a51 853f e53c 8ebf 7f2d 1f3f f031 a3bf
000000e0: 2f34 2a40 b0d3 f83f 28f5 20bf 72cc 8c3f
000000f0: 2e53 ab3f 4872 a23f ca50 57bf cb92 18bf
0.43735412 -0.27487862 -0.111096874 -1.2995695 1.7997023 0.27764052 0.39838004 2.2922695
-1.2341578 2.2410507 2.8824522 -1.3135481 0.37216896 0.7953573 0.28103277 1.2176781
0.7035941 2.1688406 -1.1215746 1.8205272 0.8432346 2.8299012 -1.2623284 1.1489971
1.5806215 -2.112162 1.5908738 1.624176 -1.2793392 0.8821639 2.2127948 -0.49921614
-0.3763158 -0.44844106 1.5354837 1.9765687 2.152413 -1.667368 1.014486 0.6073515
-0.72462523 -0.6561156 2.0852757 -0.5938865 -0.36821568 0.65576476 2.1096644 0.033029627
0.75646716 1.6454437 1.0391107 -0.38954863 1.0415471 -1.1112334 0.62178797 -1.2749615
2.659435 1.9439602 -0.6287408 1.0999892 1.338476 1.2691126 -0.8410765 -0.5959899

l2.bias f4 [8]
00000000: 995d 9c3a 1ba3 123f 8bef 813f 3315 7d3f
00000010: e417 13be f248 d23e 70b3 b13d d401 8bbb
0.001192975 0.5728013 1.0151228 0.9886047 -0.14364582 0.41071278 0.08676803 -0.0042421613

l3.weight f4 [19, 8]
00000000: b4ca 80c0 9352 f9bf 968b 3ebf 9a46 3b3f
00000010: a3c7 ce3d 85a8 a43d 24c2 0b3d dfcc 0aba
00000020: 8072 c43e abb9 fbbe b793 af3e 04b9 b0bf
00000030: 74d3 933f 30e8 efbf 6992 07c0 6d0e 68be
00000040: a443 163f b60b 60bf 18f7 a43e 1ce0 99be
00000050: 9a8e b7be de42 59c0 06ab aabf c6f6 233f
00000060: 0ef4 3dbd e4f4 2b3e a4fe 593f 941e dfbf
00000070: 2c66 c7bf 12a1 8c3c bbeb 51c0 06a0 3c3f
00000080: baf7 0a3e 05b9 a1be 2cd0 e7bf e65c f33d
00000090: 8263 813d a064 3b3e 9f0c 293f d664 01bf
000000a0: d347 df3d a952 c8bd ddc3 efbc fb2c 1fbe
000000b0: 7a22 ccbc ef99 3abd 37cf 50c0 5447 433d
000000c0: 018d 43c0 a267 c7be b42a f9bf cbee 463f
000000d0: e452 013f 7de1 843e cc8a 39be 2e93 1cc0
000000e0: a35c 8abf e19c 953f e7c8 703d b247 83be
000000f0: 4593 2fc0 287a cb3e 3fcb 87be 9a27 f2be
00000100: a67b abbf 9a73 bdbf 7cc1 713f c1f3 7b3f
00000110: acf1 2bc0 b644 74bf 8183 3ac0 df76 ce3e
00000120: 7e7c 69bf 14ec 0bbe c086 103e 74e6 67be
00000130: 04ae d5bf 591c 04bf 34aa 293d ac67 383f
00000140: 596d 04c0 d2cc 9dbf 0b34 273f 7065 abbf
00000150: 0077 7abd 452f 49c0 1b86 263f 1f01 583f
00000160: 3f67 2bc0 b6bb 783e 33bb 743d 1e7a e73d
00000170: e482 d83d 5421 903d 8426 4abf c759 39be
00000180: d3a2 c3be 07fa 0ec0 86e4 32be 38b7 e83c
00000190: f56e 493f 45e5 6fbf 66e9 aabe dffd 943d
000001a0: c0b6 173f 17ba 373f eb8e 93be d218 b9bf
000001b0: 0a49 b23e d24a 733e d691 58bf 786d 46bf
000001c0: 2d4a 6f3f 9ee1 66bd e76e da3e 104a 11bd
000001d0: 19de 22c0 e461 e73e 0bdf 1ec0 8dbe b0bf
000001e0: 1193 d9bf c949 fd3e 35b7 34bf 5df8 78bf
000001f0: 37ee 313f c5f5 01c0 0979 903f ee7c 8a3e
00000200: e972 51c0 d450 833f fe40 96bf 14b4 34be
00000210: d93b 76be bf64 263f 1bf9 f73e e816 e2bf
00000220: 90a6 c63e bf18 b33e b435 d4bf 5d7c d33e
00000230: 7276 32bf ab7b 4f3f 0770 9fbf aac2 e9bf
00000240: 0f44 693f 0e15 353f e80c 0b3e ffbb 1ec0
00000250: ba57 37bf 3fbc 00c0 7110 a93e 9f36 433e
-4.024744 -1.9478325 -0.7443174 0.73154604 0.100966714 0.08039955 0.034120694 -0.00052948104
0.38368607 -0.4916509 0.34292385 -1.3806462 1.1548905 -1.8742733 -2.1183112 -0.22661753
0.5869696 -0.8751787 0.32219768 -0.30053794 -0.35850984 -3.3947062 -1.3333442 0.6404842
-0.046375327 0.16792637 0.85154176 -1.7431207 -1.5578055 0.017166648 -3.2800128 0.73681676
0.13571063 -0.3158647 -1.8110404 0.11882953 0.06317808 0.18300104 0.66034883 -0.5054449
0.10902371 -0.09781391 -0.0292682 -0.15544502 -0.024918783 -0.04555696 -3.2626474 0.047675446
-3.0554812 -0.38946253 -1.9466157 0.7770812 0.50517106 0.25953284 -0.18119353 -2.4464831
-1.080952 1.1688501 0.058785345 -0.25640637 -2.7433636 0.39741635 -0.26522252 -0.4729584
-1.339711 -1.4800904 0.9443586 0.98418814 -2.6866255 -0.95417345 -2.9142764 0.40325066
-0.91205585 -0.13664275 0.14113903 -0.22646505 -1.669373 -0.51605755 0.041422084 0.7203319
-2.069174 -1.2328131 0.65313786 -1.3390331 -0.061148643 -3.14351 0.6504838 0.8437671
-2.6781766 0.24290356 0.05974884 0.11302589 0.105718404 0.07037607 -0.7896502 -0.18100654
-0.38210163 -2.2340105 -0.17469987 0.028407678 0.7868493 -0.9370921 -0.33381194 0.072749846
0.5926323 0.71768326 -0.28819975 -1.44607 0.3482135 0.2375901 -0.8459753 -0.77510786
0.9347256 -0.05636751 0.42662737 -0.035471022 -2.5448058 0.45191872 -2.4823635 -1.3808151
-1.6998006 0.49470356 -0.7059205 -0.9725397 0.6950411 -2.0306256 1.1286937 0.2704844
-3.2726386 1.0259042 -1.1738584 -0.1764682 -0.24046268 0.64997476 0.4843224 -1.766324
0.38798952 0.34979817 -1.6578889 0.4130582 -0.69711983 0.8104808 -1.2456063 -1.8262532
0.91119474 0.7073525 0.13579142 -2.4802244 -0.71618235 -2.0114896 0.33020356 0.19063805

l3.bias f4 [19]
00000000: 1970 1b3e d89a 103e e2f8 5fbe 7ee5 06bd
00000010: 9b38 efbe 5737 40bf 3961 b23e fb2d 8ebb
00000020: edac 0d3f a802 633c 1e9e 753e 1b83 19be
00000030: 254e e2bd 53ff 653d 2e94 323e 9445 c6be
00000040: 1500 b33e 2299 d73d 18d9 b5be
0.1517948 0.14121568 -0.21872285 -0.032933705 -0.46722874 -0.7508444 0.348398 -0.0043389774
0.5534199 0.013855614 0.23986098 -0.14991419 -0.11050061 0.0561517 0.17439339 -0.3872496
0.34961 0.10527255 -0.35517192
