data.pth (torch, 13079 bytes, 6 tensors)

l1.weight f4 [8, 217]
-0.26351324 0.2719351 -0.008897327 1.1048919 -0.79323363 0.14433832 0.50894 -0.25392646
0.61029404 -0.4850336 0.29363045 0.19938137 0.36587012 0.3344192 0.292495 0.4187195
0.5774032 0.20761195 0.5445568 0.30962718 0.32636595 0.083805025 0.43786907 -0.10776534
0.066351615 0.29089755 0.2935294 0.23562123 -0.1024091 0.4544127 0.43451604 -1.1208031
-0.135498 0.6888329 -0.001548798 0.30156383 0.3006075 0.19492908 -0.5769315 0.27238172
0.37000564 0.27931 -0.27759212 0.34019694 -0.18678 0.3971088 0.30042198 0.005044723
-0.5739724 -1.2677562 0.18431664 0.4479353 -0.35688773 0.5897517 1.4074596 0.25708315
0.14176875 0.13859563 0.24894978 0.22742508 0.24619198 0.7519639 -0.0044551543 -0.51370066
-0.26377723 0.38692692 0.25499192 0.45066974 -0.3054499 0.8569011 -0.9635821 0.5394516
-0.061327018 -0.08441514 0.498784 0.011141744 0.9331075 -0.98230976 0.9502909 0.60536325
0.1566506 0.2331632 -0.011807178 1.052977 0.017761074 0.9621186 0.91935426 0.46306458
0.9503634 -0.112942606 0.31480846 0.51183385 0.08623692 0.38725874 -0.18461373 -0.27847666
0.31205449 0.06672776 0.20812577 -0.4134564 -0.16519746 0.22231208 0.30851412 -0.47212583
0.40355834 0.15842757 0.2048294 0.35952008 0.521353 0.10389165 -0.38674578 0.36135286
0.1232647 -0.056458678 -0.093709596 0.33192888 -0.4678732 0.46293253 -0.23161896 0.84760714
0.035614494 0.5689342 -0.45803007 -0.135274 0.33752555 1.0275241 0.5534257 0.2656967
-0.26298672 0.71180254 0.5370828 0.23880741 0.5339428 0.3170251 0.045317445 0.32889974
0.0042480743 -0.06683886 0.9229033 0.34226307 0.3043943 0.30023172 0.44634333 -0.117102385
-0.17962025 0.1529852 0.36678645 -0.53305316 0.6514243 0.74097925 -0.32793152 -0.1900439
0.29124984 0.5644177 0.49901336 0.43188384 0.43352097 -0.0990363 -0.47740114 0.73660666
0.44329458 0.73917603 0.3371427 0.39151916 0.07150172 -0.19285783 0.0155611215 -0.11622048
0.14622808 0.29854202 0.15554771 -0.01610342 -0.095239595 -1.1022986 0.2628228 0.13183203
0.4875431 0.3471781 -0.028892063 0.19127262 0.31646973 -1.2249931 -0.27486536 0.5200019
0.3301891 0.4114805 -0.25379434 0.09025816 -0.59925425 0.36020857 0.114878945 -0.07546459
0.1710861 0.1551858 0.95575655 0.3712938 0.36445576 0.61544305 0.33897498 0.30588254
-0.5568752 0.53535753 0.67919636 0.15106855 0.20812564 0.33813953 0.2639525 0.5070448
0.5479397 0.36284265 0.28463644 0.15574136 0.104020074 0.37879446 0.3732868 0.32887822
0.49268577 0.8586012 0.23092753 0.99642074 0.63185585 0.774078 0.27575648 -0.120891266
-0.33218083 -0.5877277 0.12571777 0.24468403 -0.05634874 -0.021031631 0.07467736 -0.32141787
-0.2822281 -0.3810894 0.0951356 0.44325864 -0.152124 0.070080996 0.13420065 -0.0062189344
0.20790903 0.27224958 0.16776043 -0.1998715 0.05683067 -0.24529038 -0.25183326 0.0140055325
-0.33202028 -0.06301844 0.22581328 0.5349612 -0.014397185 0.2386047 0.11929963 0.4217929
00000000: 35eb 86be 143b 8b3e 18c6 11bc 196d 8d3f
00000010: 5c11 4bbf 6dcd 133e e449 023f a602 82be
00000020: 3b3c 1c3f 5356 f8be bb56 963e a12a 4c3e
00000030: 5453 bb3e fe38 ab3e e8c1 953e 6762 d63e
00000040: b2d0 133f 3a98 543e 1368 0b3f 7487 9e3e
00000050: 7019 a73e f8a1 ab3d 6030 e03e 13b4 dcbd
00000060: 5be3 873d 86f0 943e 7c49 963e b146 713e
00000070: ddbb d1bd c8a8 e83e e378 de3e 7a76 8fbf
00000080: fdbf 0abe 5a57 303f 0a01 cbba 9366 9a3e
00000090: 3ae9 993e 7d9b 473e c8b1 13bf 9e75 8b3e
000000a0: 6171 bd3e b801 8f3e 8e20 8ebe 4b2e ae3e
000000b0: 4243 3fbe d851 cb3e e9d0 993e 344e a53b
000000c0: dbef 12bf d645 a2bf 80bd 3c3e c757 e53e
000000d0: fdb9 b6be f8f9 163f a327 b43f 67a0 833e
000000e0: d42b 113e 03ec 0d3e b1ec 7e3e 1fe2 683e
000000f0: c019 7c3e b580 403f 8bfc 91bb e381 03bf
00000100: cf0d 87be 491b c63e 4d8e 823e 2fbe e63e
00000110: ee63 9cbe df5d 5b3f 51ad 76bf 8019 0a3f
00000120: 0a32 7bbd d8e1 acbd 9e60 ff3e dd8b 363c
00000130: 22e0 6e3f a778 7bbf 4446 733f 16f9 1a3f
00000140: 0469 203e 55c2 6e3e e572 41bc f3c7 863f
00000150: ac7f 913c 684d 763f cd5a 6b3f cd16 ed3e
00000160: 044b 733f 744e e7bd 932e a13e 8b07 033f
00000170: fb9c b03d c746 c63e 620b 3dbe 7e94 8ebe
00000180: 9bc5 9f3e 90a8 883d ec1e 553e 8fb0 d3be
00000190: 8629 29be c7a5 633e 90f5 9d3e 7aba f1be
000001a0: 339f ce3e d63a 223e ccbe 513e 0413 b83e
000001b0: 6477 053f 25c5 d43d 8b03 c6be 3e03 b93e
000001c0: 3472 fc3d 3741 67bd d1ea bfbd 95f2 a93e
000001d0: 138d efbe 7e05 ed3e 852d 6dbe c8fc 583f
000001e0: 81e0 113d aca5 113f eb82 eabe 4485 0abe
000001f0: 26d0 ac3e e985 833f 4fad 0d3f 6609 883e
00000200: 32a6 86be b138 363f 427e 093f ee89 743e
00000210: 7ab0 083f 1d51 a23e c99e 393d 8c65 a83e
00000220: 6e33 8b3b d0e2 88bd 6443 6c3f 1b3d af3e
00000230: 92d9 9b3e f9b7 993e 1d87 e43e 60d3 efbd
00000240: 5fee 37be 27a8 1c3e 6fcb bb3e 2c76 08bf
00000250: bec3 263f d1b0 3d3f a4e6 a7be de9a 42be
00000260: b31e 953e ae7d 103f ae7e ff3e e11f dd3e
00000270: 76f6 dd3e 8bd3 cabd ec6d f4be 4192 3c3f
00000280: 82f7 e23e a43a 3d3f f89d ac3e 3375 c83e
00000290: 7e6f 923d 867c 45be 13f4 7e3c 0105 eebd
000002a0: d0bc 153e 80da 983e e647 1f3e 52eb 83bc
000002b0: fa0c c3bd 1f18 8dbf b690 863e fafe 063e
000002c0: 409f f93e 54c1 b13e 0caf ecbc f8dc 433e
000002d0: 5208 a23e 93cc 9cbf 27bb 8cbe d81e 053f
000002e0: 8c0e a93e 92ad d23e 55f1 81be 45d9 b83d
000002f0: ba68 19bf 426d b83e a745 eb3d 2e8d 9abd
00000300: 3231 2f3e 07e9 1e3e 76ac 743f 391a be3e
00000310: f299 ba3e ad8d 1d3f 218e ad3e a39c 9c3e
00000320: 608f 0ebf 310d 093f d0df 2d3f b7b1 1a3e
00000330: e31e 553e a020 ad3e c824 873e b0cd 013f
00000340: c745 0c3f 83c6 b93e debb 913e aa7a 1f3e
00000350: 7a08 d53d 59f1 c13e 731f bf3e ba62 a83e
00000360: 4f41 fc3e 4acd 5b3f 4478 6c3e 6e15 7f3f
00000370: 4ec1 213f fa29 463f f42f 8d3e d795 f7bd
00000380: 9b13 aabe 5375 16bf 29bc 003e 738e 7a3e
00000390: f0cd 66bd 874a acbc 72f0 983d e290 a4be
000003a0: 3480 90be 261e c3be 74d6 c23d ccf2 e23e
000003b0: 65c6 1bbe a086 8f3d e56b 093e 34c8 cbbb
000003c0: 1be6 543e 4c64 8b3e 64c9 2b3e 1dab 4cbe
000003d0: 47c7 683d 672d 7bbe 4af0 80be 7677 653c
000003e0: 90fe a9be d00f 81bd 993b 673e 38f3 083f
000003f0: 2ce2 6bbc ca54 743e 5d53 f43d 3df5 d73e

l1.bias f4 [8]
1.7908579 0.7302256 0.97161055 0.8676556 1.1385036 0.77938926 1.586604 1.083326
00000000: d53a e53f 11f0 3a3f 78bb 783f ad1e 5e3f
00000010: 7cba 913f 0e86 473f d715 cb3f 6daa 8a3f

l2.weight f4 [8, 8]
1.4892453 -1.6573325 -1.231381 -2.2416205 1.1158962 0.63451016 2.0067277 0.41154033
-0.48067534 2.2535589 0.39371288 2.505964 -1.58231 -0.9793119 1.9599102 2.5197055
1.0248556 2.0570989 3.2242348 1.6963124 2.754524 -0.18676712 0.064395264 -1.444678
1.4376299 1.6382345 1.2958266 -1.9768776 2.1602287 -0.73494536 0.15533036 -1.0219887
0.4936932 0.17834057 -1.6692563 1.2536124 1.165541 -1.8952422 0.46424296 2.233528
0.048421472 -0.34366536 -0.18816549 -0.008645713 -0.22829911 -0.14636931 -0.22653413 -0.22361457
0.7410081 -1.5103047 1.1859814 -0.40896273 1.632356 -2.063343 0.7263154 0.15513852
1.8490646 -1.1682374 -1.4239005 -0.86069715 -0.8743832 1.5485003 1.9838312 2.0943756
00000000: 979f be3f 7923 d4bf e59d 9dbf b676 0fc0
00000010: b0d5 8e3f 426f 223f 3a6e 0040 6ab5 d23e
00000020: 141b f6be 4f3a 1040 bc94 c93e b761 2040
00000030: 2289 cabf 2fb4 7abf 56de fa3f db42 2140
00000040: 782e 833f 82a7 0340 dd59 4e40 c420 d93f
00000050: 1f4a 3040 e13f 3fbe aae1 833d 35eb b8bf
00000060: 4204 b83f abb1 d13f a5dd a53f 530a fdbf
00000070: 3041 0a40 6125 3cbf ec0e 1f3e 87d0 82bf
00000080: 5bc5 fc3e e99e 363e 31aa d5bf 5f76 a03f
00000090: 7330 953f 4c97 f2bf 41b1 ed3e 1ff2 0e40
000000a0: 9855 463d e8f4 afbe 74ae 40be c0a6 0dbc
000000b0: 3ec7 69be d6e1 15be 90f8 67be 38fb 64be
000000c0: b5b2 3d3f aa51 c1bf 3dce 973f 9063 d1be
000000d0: 0bf1 d03f d00d 04c0 ceef 393f a2dc 1e3e
000000e0: 26ae ec3f ce88 95bf 5f42 b6bf a656 5cbf
000000f0: 94d7 5fbf 4235 c63f 2eee fd3f 400a 0640

l2.bias f4 [8]
0.65982825 0.42631596 0.69726104 -0.0028394968 -0.08582353 -0.08583808 0.3864216 1.0829692
00000000: 81ea 283f 1646 da3e b37f 323f da16 3abb
00000010: 3fc4 afbd e0cb afbd 0dd9 c53e bc9e 8a3f

l3.weight f4 [19, 8]
-1.6339929 0.13289906 -0.089236826 0.3675178 -1.488315 0.33336285 -0.7317643 -0.35309562
-1.295059 1.0761956 -0.6371227 -2.060934 -0.09406803 0.121070474 -1.4725634 -1.397922
0.9186885 -0.21342528 -2.0354133 -2.1923087 -2.8907297 -0.18457529 -0.15120158 1.1321471
0.5964719 -1.3180928 -1.7703923 -0.6259925 0.19466615 -0.020566553 0.48584664 0.514248
-0.46827918 -1.4434392 0.79962546 0.7696554 -3.8704326 -0.33410266 -3.35441 -0.5445914
-1.9845873 0.043700643 0.3019712 -0.26156822 -0.07068244 -0.027378052 -2.066694 -2.4753308
-2.16435 0.038829714 0.55122405 0.5325189 -3.2409034 -0.027013063 -3.6120212 -2.6350768
-3.1157734 0.63558763 0.49268207 -1.5979004 -2.8523762 0.31041703 -0.29585266 -0.6914007
0.8099732 -3.7568932 -0.45944357 -0.09825159 -2.7030406 -0.13498025 0.013717881 1.0142404
0.05921093 -0.57515085 -0.10515316 -0.063136876 -4.6471987 0.286773 0.30855805 0.030946273
0.17681515 0.0667355 -2.7167509 -3.2586298 0.5603667 0.14802417 0.66378367 0.51392376
0.18653153 0.10024349 -0.89445674 -0.54720837 -0.5564125 0.18383625 -2.3713593 0.2873543
-2.6285279 -0.9877755 0.27798715 -0.8671421 0.47720438 0.29008582 1.1737907 -1.423437
-0.42993188 -0.1638061 -0.58150494 -1.7160088 0.72085965 -0.0020032823 0.18006879 -0.26766953
-1.2580733 0.0767011 -0.22842675 -2.5588608 -3.0289547 -0.05650416 -1.9099779 1.066803
-2.0774162 0.79643035 -2.313259 -1.6967318 0.7654862 0.08567077 -1.222071 0.5380303
-3.9769788 -0.62631863 0.39265174 0.73987806 -2.8776693 0.12774572 0.5240211 -2.062594
-0.5955546 -2.4725473 0.19865581 0.9107406 -3.220515 -0.07887986 0.77500504 -1.2496095
-0.19080125 -1.8870575 -0.32792607 0.1623392 -0.49025175 -0.21473932 0.7680811 -0.13436323
00000000: ae26 d1bf b116 083e ccc1 b6bd 4b2b bc3e
00000010: 1b81 bebf 89ae aa3e e854 3bbf f3c8 b4be
00000020: 7ec4 a5bf c7c0 893f 791a 23bf 58e6 03c0
00000030: bda6 c0bd ccf3 f73d f57c bcbf 1cef b2bf
00000040: 2b2f 6b3f 288c 5abe 3644 02c0 c94e 0cc0
00000050: b701 39c0 4e01 3dbe 96d4 1abe 32ea 903f
00000060: 62b2 183f 44b7 a8bf 379c e2bf 0b41 20bf
00000070: 9056 473e 307b a8bc e4c0 f83e c2a5 033f
00000080: 4ac2 efbe 9ec2 b8bf 41b4 4c3f 2308 453f
00000090: 2bb5 77c0 810f abbe a7ae 56c0 586a 0bbf
000000a0: f506 febf 72ff 323d f89b 9a3e 45ec 85be
000000b0: f5c1 90bd f047 e0bc b744 04c0 d26b 1ec0
000000c0: b684 0ac0 e80b 1f3d 051d 0d3f 2953 083f
000000d0: f66a 4fc0 804a ddbc 5b2b 67c0 19a5 28c0
000000e0: d568 47c0 dfb5 223f d340 fc3e 0088 ccbf
000000f0: 558d 36c0 fbee 9e3e 007a 97be a3ff 30bf
00000100: 675a 4f3f f070 70c0 303c ebbe 2138 c9bd
00000110: 9efe 2cc0 4338 0abe f7c0 603c a1d2 813f
00000120: 2987 723d 163d 13bf 8a5a d7bd e84d 81bd
00000130: dab5 94c0 e9d3 923e 52fb 9d3e 0a83 fd3c
00000140: 080f 353e 9fac 883d 3fdf 2dc0 648d 50c0
00000150: 3174 0f3f a693 173e baed 293f 8290 033f
00000160: 1f02 3f3e 754c cd3d 1efb 64bf d915 0cbf
00000170: 0d71 0ebf 923f 3c3e 5ac4 17c0 1a20 933e
00000180: cd39 28c0 dbde 7cbf 5554 8e3e 06fd 5dbf
00000190: 2254 f43e 2186 943e c63e 963f 2f33 b6bf
000001a0: 0820 dcbe c9bc 27be 82dd 14bf 2da6 dbbf
000001b0: 428a 383f 8049 03bb f463 383e fb0b 89be
000001c0: 8c08 a1bf 7715 9d3d b4e8 69be 60c4 23c0
000001d0: 65da 41c0 e870 67bd 287a f4bf 008d 883f
000001e0: 63f4 04c0 dce2 4b3f 6f0c 14c0 822e d9bf
000001f0: e7f6 433f 2874 af3d d36c 9cbf 5bbc 093f
00000200: d286 7ec0 6b56 20bf a609 c93e a668 3d3f
00000210: bc2b 38c0 c6cf 023e 3f26 063f 8a01 04c0
00000220: 4476 18bf 373e 1ec0 6e6c 4b3e 4c26 693f
00000230: eb1c 4ec0 c48b a1bd bb66 463f 34f3 9fbf
00000240: 6761 43be 1a8b f1bf ede5 a7be 3f3c 263e
00000250: 4702 fbbe a0e4 5bbe f7a0 443f 8496 09be

l3.bias f4 [19]
-0.62954307 -0.14790085 0.4236197 -0.64907277 0.34618956 -0.59718114 -0.2987774 0.67362595
0.8470549 -0.22135398 0.16769682 0.15851818 0.14408673 -0.113232724 0.6681416 0.16246873
-0.014670681 -0.04805346 -0.32910827
00000000: bc29 21bf 5273 17be aee4 d83e a229 26bf
00000010: c23f b13e dde0 18bf 5af9 98be c072 2c3f
00000020: 97d8 583f 9eaa 62be b7b8 2b3e 9752 223e
00000030: 798b 133e 8fe6 e7bd 540b 2b3f 345e 263e
00000040: 4c5d 70bc b4d3 44bd e180 a8be
