data.pth (torch, 7255 bytes, 6 tensors)

l1.weight f4 [8, 100]
000000 38 e6 a8 3e da 12 62 be f8 63 36 3e a8 2b 9e 3e
       0.32988143 -0.22077504 0.17811573 0.30892682
000010 fb f6 ee be 78 b0 a7 3e ef cc 8a bc 2b d2 a1 3e
       -0.46672806 0.32751822 -0.016943423 0.31605658
000020 3c 0e ce 3e a5 b5 28 3f 74 84 4e 3e 1b 63 b3 3e
       0.40245235 0.6590217 0.20167714 0.3503655
000030 42 97 8f 3e 5d bc 60 bd 96 7e 56 3f 25 dd a8 3a
       0.28045088 -0.054867137 0.83786905 0.0012883289
000040 f6 4e c5 be 27 58 6b be dd 5b 88 3e 4a 14 81 3e
       -0.38536805 -0.22982846 0.26632586 0.25210792
000050 8c 95 9b 3e fc e5 2b be 2e 00 6a 3e d9 64 4f be
       0.30387533 -0.16786951 0.22851631 -0.20253314
000060 48 75 15 3f 55 ec 67 3e da e5 18 bf 3c cc ca be
       0.5838208 0.22648747 -0.59725726 -0.39608943
000070 51 96 dc be 07 f2 57 3f 2c 76 92 3e 33 88 19 3e
       -0.43083432 0.8435368 0.28605783 0.14993362
000080 ce a8 cf be e0 a2 f7 3c 56 d0 05 3f 1d a5 4b 3f
       -0.40558475 0.030229032 0.5227102 0.7954882
000090 c8 49 06 3f 2a 1b 1c be 84 4c cd be 38 e3 a5 3e
       0.5245633 -0.15244737 -0.4009744 0.32399917
0000a0 a6 50 19 3f 65 06 6b 3f 1e ae 30 3f 33 03 12 3f
       0.59888685 0.9180663 0.6901568 0.5703613
0000b0 98 dd 76 3e d1 68 0a 3f 35 3e ff be 6d c0 d1 be
       0.24107969 0.5406619 -0.49852148 -0.40967122
0000c0 1c e6 a0 3e 9a 68 d4 be a1 c3 09 bf 72 0f b6 be
       0.3142556 -0.41486055 -0.5381413 -0.3555866
0000d0 3a 05 68 3e 73 6b a1 bd ec c5 0d 3f 58 d2 1c be
       0.22658244 -0.078818224 0.5538013 -0.15314615
0000e0 0d 17 cf 3e d3 ff e9 3c b2 ef 18 bd 30 b1 51 bc
       0.40447274 0.02856437 -0.037337966 -0.012798592
0000f0 23 a2 a9 3e a0 c6 c4 bd 54 54 97 bc 7e 42 13 3e
       0.33131513 -0.09608197 -0.018472828 0.14380834
000100 07 56 0f be 31 ba 1b be 46 f0 19 be d2 b7 d1 3e
       -0.1399766 -0.15207745 -0.15033063 0.40960556
000110 2a b4 65 be da 13 7c bc 08 48 1c be 8e a5 9c 3e
       -0.22432008 -0.015385592 -0.15261853 0.30595058
000120 38 b7 8a 3e ac ce d1 be bf 6b d8 bd 08 aa f3 be
       0.2709291 -0.4097799 -0.10567426 -0.4759066
000130 30 97 5a bc 12 72 5f bd 94 2e 57 be 74 93 85 3d
       -0.01334171 -0.054552145 -0.21013862 0.06522265
000140 e6 7d 5e 3f 3f 9f fd 3e 3e 6b eb 3d bc 4b 13 3b
       0.86910856 0.49535558 0.11495064 0.002247556
000150 62 65 3b be 3c be d6 3e 5b 03 1f 3e 27 be 08 3e
       -0.18300393 0.41942012 0.15528624 0.13353787
000160 d4 12 89 3f 42 7e 86 3e f6 bd 85 3e 98 47 95 be
       1.0708871 0.26268202 0.2612149 -0.29156184
000170 22 fd 76 bd b0 48 ed bd 46 58 3b bf 67 7a 7b bd
       -0.0603 -0.1158613 -0.7318157 -0.06139603
000180 8d 8f e7 3e 1a 2e 5a 3e c4 85 9c 3d 66 15 d0 3d
       0.45226708 0.21306649 0.07642701 0.101603314
000190 16 16 14 3f fb 32 17 3f e4 11 48 3f bb f5 3b be
       0.578462 0.59062165 0.781523 -0.18355457
0001a0 87 f4 78 be 5b 9e f5 be 2b 12 a8 3e 8e 2b c9 3e
       -0.2431203 -0.47972378 0.3282636 0.39291042
0001b0 98 2c b8 be 8c dc d8 bc 64 49 38 3f 90 6b 8f 3e
       -0.35971522 -0.026472352 0.71986985 0.2801175
0001c0 14 01 d3 3e bc 48 99 3e f8 82 44 be d6 a6 90 3e
       0.4121176 0.29938304 -0.19190586 0.28252286
0001d0 dd c5 bd bd 80 b0 53 3d ca 9b 5e 3e 81 07 bb 3e
       -0.09266255 0.051681995 0.21739116 0.36529163
0001e0 5a 53 ec 3e 8d 73 ce 3e ca 90 41 be bb 68 1b 3f
       0.46157342 0.40322533 -0.18902889 0.6070668
0001f0 17 c7 6f be 20 ee ed 3e 20 04 64 3f 65 ca 43 3f
       -0.2341579 0.46470737 0.89068794 0.76480705
000200 6d 22 0f 3f 93 85 bb 3e 19 17 46 be 37 25 26 be
       0.55911905 0.36625347 -0.19344749 -0.16225134
000210 42 13 0b 3f a6 22 f0 3e f4 e5 e7 be 47 a5 5b be
       0.5432626 0.46901435 -0.45292628 -0.21449767
000220 fd 94 29 bf 2f 3f 68 bd 15 4a 68 be 16 53 ef 3e
       -0.66242963 -0.05670088 -0.2268451 0.46743077
000230 de 68 28 bf 11 97 c1 be e1 09 18 bf e2 dc 15 bf
       -0.65785015 -0.37810567 -0.59390074 -0.58540165
000240 49 c0 91 3e 52 87 27 bf 50 81 62 be 11 e8 b5 3e
       0.28467014 -0.6544086 -0.22119641 0.35528615
000250 66 c0 cf 3e 1e 94 cb be d9 b1 0f 3f 77 86 eb 3e
       0.40576476 -0.39761442 0.5613075 0.46001026
000260 64 8e d7 3e 9b 6e cd 3e 9c f2 86 bd 93 1d 3c 3f
       0.42100823 0.40123448 -0.06589243 0.73482627
000270 66 f3 85 3e 51 c0 f3 3e b9 86 b0 bd 26 da c6 bd
       0.2616226 0.47607663 -0.08619446 -0.09709577
000280 0b 06 79 be bc c0 c8 3e 0f 24 83 be 3e c5 d2 be
       -0.24318711 0.39209545 -0.25613448 -0.4116611
000290 c2 d7 74 3e 6f 11 a7 3e da 87 42 bd 09 22 5a bd
       0.2391043 0.32630488 -0.04749284 -0.053255115
0002a0 6e 0a 17 bf 04 3f f1 bd 98 d7 0f 3f 47 f4 03 3f
       -0.5900029 -0.117795974 0.56188345 0.5154461
0002b0 dd 24 0b 3f 4a 58 0e 3f 0e a9 5c be 77 b7 4f be
       0.54353124 0.5560347 -0.21548864 -0.2028483
0002c0 cb 24 ce bd 14 ec 16 bd b0 65 35 3f 39 44 05 3f
       -0.100656115 -0.036846235 0.7085829 0.52057225
0002d0 eb 55 52 3f 92 c6 20 3f f3 11 cb 3e 66 91 b1 be
       0.8216235 0.62802994 0.39662132 -0.34681243
0002e0 11 d4 31 3e 5a 07 04 bf e7 b8 b5 3e 80 d6 84 3e
       0.17366053 -0.5157372 0.35492632 0.259449
0002f0 e8 55 96 3f fc c1 d8 3e 91 78 e7 3e 50 08 9d 3e
       1.1744967 0.42335498 0.45209172 0.30670404
000300 38 78 f0 3e e2 56 97 be 8c 06 8f 3e 19 36 6c bd
       0.4696672 -0.29558474 0.27934682 -0.05766878
000310 d4 f5 a8 3e 77 e3 aa 3e 94 b0 e9 3d 06 32 08 3f
       0.33000052 0.33376667 0.11410633 0.5320133
000320 1f e1 64 be cc 83 84 be 58 d9 ee 3d 34 76 9e 3e
       -0.22351502 -0.25881803 0.11662549 0.30949557
000330 4a b5 d2 be 02 68 b5 3e 86 4b 00 be 72 0a a3 3e
       -0.41153938 0.35430914 -0.1252881 0.31843907
000340 8b 4d d1 3e de a3 93 3f c1 d5 22 bf 93 f5 cd 3e
       0.40879473 1.1534383 -0.6360741 0.4022642
000350 c8 6f 91 3e 69 1f 3d be a9 bc 46 3f 49 6b 4c bd
       0.28405595 -0.18469013 0.7763162 -0.049907003
000360 d0 90 ce be 27 47 88 be c5 07 20 3e 78 26 42 3e
       -0.40344858 -0.26616785 0.15627964 0.18959987
000370 d0 32 bd 3e b1 a4 98 be 0f 5c c8 3e 3b 7d 45 bd
       0.3695283 -0.2981315 0.39132735 -0.048215132
000380 78 96 01 3f e9 97 7d 3e d7 96 3c bf ba da e6 be
       0.5062022 0.2476498 -0.73667663 -0.4508875
000390 17 f8 14 bf 05 10 0e 3f bd 8c ab 3e 74 5f 49 3f
       -0.58191055 0.55493194 0.33505812 0.78661275
0003a0 23 14 d0 be b3 4e d9 bc 4e 61 10 3f 83 75 50 3f
       -0.40640363 -0.026526785 0.56398475 0.8142931
0003b0 a9 06 00 3f 58 09 0a be cb 3f af be 78 8c 52 3e
       0.5001016 -0.13480127 -0.34228358 0.20561397
0003c0 b7 df 10 3f b2 56 86 3f b0 38 eb 3e d6 04 07 3f
       0.5659136 1.0495207 0.45941687 0.52741754
0003d0 f6 92 20 3e ed c4 22 3f cb 1e c6 be b5 a4 7e be
       0.15681061 0.63581735 -0.38695368 -0.24867518
0003e0 cf 37 f4 3e 02 a6 0a bf 1b 50 fe be 29 9d d6 be
       0.4769883 -0.5415956 -0.4967049 -0.4191678
0003f0 97 a9 9d 3e fb 76 09 be b4 a3 05 3f 88 08 fe bd
       0.3079345 -0.13424294 0.52202916 -0.12403971

l1.bias f4 [8]
000000 1c b3 38 3f 29 2d 32 3f d0 a7 1e 3f 5a 37 46 3f
       0.721483 0.6960016 0.6197481 0.7742821
000010 a1 fd 63 3f a8 fa 3a 3f 5b 07 09 3f 56 01 4a 3f
       0.8905888 0.7303872 0.5352685 0.7890829

l2.weight f4 [8, 8]
000000 a4 3e c0 3f 0b 18 f8 3e 48 81 c8 3f 64 25 69 bf
       1.5019116 0.48455843 1.5664454 -0.9107268
000010 76 cd 0b 3f 1e a1 2d 3f a7 3f b0 3e 8c 37 07 bf
       0.54610384 0.6782397 0.34423563 -0.5281913
000020 e0 4f f9 3e 35 e4 85 bf b1 3f 9d 3f 27 42 e0 3f
       0.48693752 -1.0460268 1.2285062 1.7520188
000030 53 10 76 be 92 ec 52 3f 9b b2 2a bf 46 11 a1 3f
       -0.24029665 0.8239223 -0.6667878 1.2583396
000040 6f 10 75 3f 31 b8 23 bf 29 15 8c 3f 4f 44 48 3f
       0.957282 -0.6395293 1.0943958 0.7822923
000050 a5 59 ed 3f 1a b8 09 3f a1 77 ff be 16 d8 df 3f
       1.8542982 0.5379654 -0.49895957 1.7487819
000060 88 d4 81 bf 9f 0d 89 3f 7c 9c a7 bf 8a 46 b0 3f
       -1.0142984 1.0707282 -1.309463 1.3771527
000070 90 7a bb 3e 2d 59 50 3d c2 4b e4 3e 7b 88 94 3f
       0.36616945 0.050866295 0.4458905 1.160415
000080 ae d6 54 bf d5 6e d5 3f ed 92 cb bd ca 9f c8 3e
       -0.83140075 1.6674448 -0.09940133 0.3918441
000090 17 d6 a8 bf 7f 3a ac 3f be c2 ab 3f 1d 38 97 be
       -1.3190335 1.3455352 1.3418806 -0.29535
0000a0 2c 0b 9a 3e 05 84 51 be 28 0f 0a 3f 4d 35 84 bf
       0.30086648 -0.20460518 0.53929377 -1.0328766
0000b0 c2 ef 04 bf 11 27 f3 3f 2c a1 cb 3f 9b c4 9d 3f
       -0.5192834 1.8996297 1.5908561 1.2325624
0000c0 21 c6 cf 3f 5f 81 df 3f 03 f6 a5 3f e0 c6 db 3d
       1.6232339 1.7461356 1.2965702 0.10731292
0000d0 ad 02 78 3f 47 35 05 bf 06 15 dd be 66 56 33 bf
       0.9687908 -0.5203442 -0.43180102 -0.7005371
0000e0 f4 e4 9a 3e be 7c 0a 3f 73 d2 8f be 24 cf b6 bf
       0.30252802 0.5409659 -0.28090248 -1.4281964
0000f0 f3 1e a8 3f 6f 0e 0b 3f ab bd 9a 3f 08 47 a7 3f
       1.3134445 0.543189 1.2089132 1.3068552

l2.bias f4 [8]
000000 2c 95 6e 3c a1 2b be 3e 27 30 ce 3e 17 b6 0b 3f
       0.0145619325 0.3714266 0.40271112 0.5457472
000010 e2 31 fe 3e 50 4c a4 3c be c0 f0 3e ce ec 51 3e
       0.49647433 0.02005592 0.4702205 0.2050049

l3.weight f4 [12, 8]
000000 d5 3a 54 3c 2f ea 05 c0 f4 c5 0b c0 8c 0c e9 39
       0.01295348 -2.0924184 -2.183957 0.0004445057
000010 11 43 bc 3e 3c 7a db 39 fb 6d c9 3b 4c bd 6b 3e
       0.36769918 0.00041862007 0.006147144 0.2302143
000020 3f 28 ac 3d f8 87 68 bf c9 af e3 3d 2b bf 46 bf
       0.08406114 -0.9083247 0.11117513 -0.7763545
000030 ff 22 cd be 4f 53 e3 3e 59 5e 60 bf 28 d4 3b 3f
       -0.40065762 0.44399497 -0.87643963 0.733706
000040 1c 27 16 bf ff 39 d3 bf 53 14 31 3e f9 d6 42 3e
       -0.58653426 -1.6502074 0.1729291 0.19027318
000050 e0 60 ed bd 9a 82 ce bf 4b 8a ae 3e 0b 75 9a 3e
       -0.11590743 -1.6133606 0.34089884 0.30167422
000060 95 9b 17 3d d0 7b 69 bf f0 cf af bf 63 40 17 bf
       0.03701361 -0.9120455 -1.3735332 -0.5908262
000070 b8 f6 2f 3f 06 b9 3c 3f 4b 05 33 c0 81 c4 00 3e
       0.6873584 0.73719823 -2.797198 0.1257496
000080 93 c5 b7 bf b2 f6 56 bf 86 3b b6 bf fe 63 09 3f
       -1.435717 -0.8397018 -1.4236915 0.536682
000090 dd f1 12 3f f9 c3 ff bf 06 37 10 3f 98 9d 87 bf
       0.57400304 -1.9981681 0.5633396 -1.0594969
0000a0 94 75 c9 3e ea bf 47 3f 8f 74 f0 3e 0b be 20 c0
       0.39347517 0.7802721 0.46963927 -2.5115993
0000b0 87 f3 f7 bf d9 3c ac bf a2 09 2d 3f 3e 0f 91 bf
       -1.9371194 -1.3456069 0.67592824 -1.1332777
0000c0 17 b6 00 3e c1 42 e1 3e 0e c6 0c 3f d9 75 bd bf
       0.12569462 0.43996242 0.5498971 -1.4801589
0000d0 53 e8 ef bf 0c e7 96 3e 7a 79 f1 be 11 f3 03 3f
       -1.8742775 0.2947315 -0.47162992 0.51542765
0000e0 89 64 86 3e 05 b6 27 3f 40 d5 19 3c 36 28 60 bf
       0.26248577 0.65512115 0.009389222 -0.8756136
0000f0 58 1a 90 bd 41 71 46 bd 61 4b ab be 60 5b a4 bf
       -0.07036275 -0.04844785 -0.33455947 -1.2840385
000100 b0 b4 ba bf 1b e2 01 3f 20 e3 9b 3c 6f ec 08 3f
       -1.4586391 0.50735635 0.0190292 0.5348577
000110 f7 b3 3b bd ed 6d 27 3c 71 15 ba bf b0 27 0e bf
       -0.045825925 0.010219079 -1.4537793 -0.5552931
000120 a3 0a c1 bf 88 80 35 3f 09 2b 51 3f 9f 11 09 3f
       -1.5081371 0.7089925 0.8170629 0.5354251
000130 76 c6 dc bf 76 c9 cd bf 62 59 01 bf 92 4a 2d 3d
       -1.7248065 -1.6077106 -0.5052701 0.042307444
000140 09 1f 0e 3f b4 9c af bf 73 8f 9d 3d c8 fc 88 bf
       0.55516106 -1.3719697 0.076933764 -1.0702143
000150 77 c8 dd bf c9 13 62 bf ff f5 7a 3f ae 4b 12 3f
       -1.7326802 -0.8831144 0.9803161 0.5714673
000160 da 9b 23 3f f7 0d 3b bf cf b2 29 bf 3a 87 0e c0
       0.63909686 -0.73068184 -0.66288465 -2.2270036
000170 5e a1 42 bd a3 a8 9f 3e 0b ae 03 3f a3 35 29 bd
       -0.047517173 0.31183347 0.51437443 -0.041310918

l3.bias f4 [12]
000000 10 07 9d 3e c2 88 dc be 48 ba a9 be e2 b7 9d bc
       0.3066945 -0.43073088 -0.33149934 -0.019252721
000010 56 ec 88 3e 5e c0 38 3e e3 31 3b 3e 3c 04 bb bd
       0.2674281 0.18042132 0.18280749 -0.09131667
000020 15 4b f1 3d f4 42 04 3f b3 a1 83 be 7a af 03 bf
       0.11781899 0.5166466 -0.25709304 -0.5143963
