data.pth (torch, 6871 bytes, 6 tensors)

l1.weight f4 [8, 91]
00000000: 664d 9fbe f1af c83e 0f47 1e3f 57ea f83d
00000010: e15d 1a3f 315e c4bd 65ac 853e 6dca 2d3f
00000020: e81a 12bf 6cd6 d5be 72d6 55be 5bc7 5ebe
00000030: 5110 1b3f c336 42be 263e 8b3d a698 e2bd
00000040: e354 21bd f658 9f3b d2c0 4cbf 34cd 5b3e
00000050: 645a 3c3f d9f0 86be d726 94bd e58a db3d
00000060: c537 583f f38e ab3e 6be8 3bbf edc2 373e
00000070: b832 323f 868f 453f 2e15 dc3e 2c31 a33e
00000080: 21f4 083f 15ba ab3e 6353 e4bd c728 34bf
00000090: bb65 88be d88c 9e3e 42f5 823d 4569 9a3e
000000a0: d732 ed3e a2db 2a3e 2882 9b3e 7b7e 92bd
000000b0: 641b ed3d 5ee1 1e3f 802e 503f 461e 813e
000000c0: 533e 57be 0926 153f d206 ac3e 2c84 5e3f
000000d0: d00a a9be 397c bb3e 60da 09be 1e66 883e
000000e0: 152a f53e ab45 603f ca50 863e ab1b 8cbe
000000f0: 9722 2f3e aee3 0c3f 5835 ba3e 1c51 02bf
00000100: 1ed6 183c 47c7 1d3f cd68 77ba 7248 873c
00000110: 1a11 2c3f 5f3f 28bc 99b9 1bbe a833 553f
00000120: a59a a83e 362f 38bf 0a49 e9be 17c0 4ebe
00000130: e65f cb3e e093 de3e 0c7e 42be 6fd3 adbd
00000140: 745c 86bf e650 59bd dfe5 a1bc 24e2 f73e
00000150: 4009 0d3f bbb1 263f 8cce 353f 515f 53be
00000160: 86a6 87be 0d5a 653e fe5c f03d 47cf 84be
00000170: b0f7 e53e 5ff5 2ebe 70cc af3e 960a ac3e
00000180: 1c3b b23e 07db 623e 5013 d0be 1651 26be
00000190: ad38 973e a18c a53e d938 ab3d 616b 403f
000001a0: 4d35 f43d 5415 163f d475 b43e 1936 8e3e
000001b0: 8bec dd3e 13f1 c33e 0694 a83e e91a cabe
000001c0: 0f28 923e a1b4 773e 8bb6 98bf 991b bcbd
000001d0: 4112 9abd 0999 f93e 4149 9a3e 211e 283f
000001e0: 6727 f93e e33d 5abe 3f8c f53e 35dd 313f
000001f0: 24a5 af3e 3601 aabd d31d f2be 4137 ae3e
00000200: 9691 863e 3c50 ea3e 8d4c b63e 5eb5 9b3e
00000210: b7a9 253f 6e6d 8c3e 9ff4 243e f3fd f33e
00000220: 071e 293f b033 263f 09c2 323e 665d a73e
00000230: eed6 123f 2453 e73e 7974 1abf 3141 82be
00000240: 259e 993e 13bb 103e c727 513e 0150 94be
00000250: 978c 82be a337 c03e 59c0 223d 32af d33e
00000260: 9433 d53e 7a66 ed3e 0e61 873e deb5 4b3c
00000270: 8b0e cabe b398 833e 9477 aa3e 0821 0e3f
00000280: aee2 8dbd cbea 043e f31f 18bf 2ee3 823e
00000290: 7f28 cabe e073 8abe fe8c 993e 3ac0 a63e
000002a0: 0349 b33e 9be0 ac3e 75bd 883e e18b 5f3f
000002b0: 9f5f 913e b4cf bf3e b9eb ce3e 7285 45be
000002c0: 847c 313f 1db1 eebc 1ea2 cf3e 4a8f a13e
000002d0: f5e7 a03e 0fc7 d7be af50 40bd cf71 abbd
000002e0: 668f 923c a8bd 0dbd 8c85 f23c 958d be3c
000002f0: d002 47bc b722 61bd ec76 2ebd e400 acbd
00000300: 6d65 823d 615b ac3c 5581 aebd bdf1 823d
00000310: 5683 1d3c 5ba7 803d 0b1b fcbd bcc1 9bbd
00000320: 8c86 f83c c21e 30bd ee0c bebd e279 493d
00000330: fa71 d7bb d299 f3bc 3454 88bc f74d 6fbd
00000340: 6561 993d 683a 3dbc 7094 42bd fe85 453d
00000350: 44ae f63c 1456 cbbd 8e11 31bd 51b0 a8bd
00000360: 6cb0 d53c 0c43 72bd 9110 67bd 6445 643d
00000370: 30a6 65bc 0e57 2bbd 3ffd 973d b3b8 1ebd
00000380: e29d 433d cfa1 013d a055 ecbc eb59 903d
00000390: f603 703d d69a 1dbd e0f8 73bd 9788 79bd
000003a0: e495 983d 22e8 b93d 623b b53d d85c 4f3d
000003b0: 5818 9abc b322 d4bd 560f 90bd 3717 843d
000003c0: 1062 21bc 004c ac3b d4f0 af3c 19f8 c93d
000003d0: e276 883d 2a64 263d 7e95 7c3d 91fc 59bd
000003e0: 206d 363b 78c3 f2bc dcb7 84bd 93e5 953d
000003f0: 0c52 dfbc fca3 c03d e975 62bb 1973 913d
-0.31113738 0.39196733 0.61827177 0.12154072 0.602995 -0.09588278 0.2610809 0.67887
-0.57072306 -0.41765153 -0.20882586 -0.21755736 0.6057177 -0.18966202 0.06798963 -0.11064272
-0.039387595 0.0048629 -0.7998172 0.21464998 0.73575425 -0.26355627 -0.072339706 0.107198514
0.844601 0.335075 -0.73401517 0.17945452 0.6960864 0.77172124 0.4298491 0.31873453
0.5349751 0.33540407 -0.11148717 -0.7037472 -0.26640114 0.3096683 0.063944355 0.3015844
0.4632785 0.16685346 0.3037274 -0.071530305 0.1157749 0.62062633 0.81320953 0.2521841
-0.21019869 0.5826116 0.33598953 0.8692043 -0.33016062 0.36618212 -0.1346221 0.2664041
0.4788367 0.87606305 0.26233512 -0.2736486 0.17103039 0.5503491 0.36368823 -0.50905013
0.009328393 0.616322 -0.0009437919 0.016514037 0.67213595 -0.010269015 -0.15207519 0.83281946
0.32930484 -0.7194704 -0.45563537 -0.20190464 0.39721602 0.43472195 -0.18993396 -0.084875934
-1.0496964 -0.053055666 -0.019762931 0.4841472 0.5509224 0.65114945 0.7101829 -0.20641829
-0.26494235 0.22397633 0.11736487 -0.2593939 0.44915533 -0.17085789 0.3433566 0.33601826
0.34810722 0.22153865 -0.40639734 -0.1624187 0.29535428 0.32333854 0.08360452 0.7516385
0.11924229 0.58626294 0.35246146 0.27775648 0.4334453 0.38269863 0.32925433 -0.39473656
0.28546187 0.24189998 -1.1930708 -0.09184951 -0.07523013 0.4874957 0.30134013 0.65670973
0.48662874 -0.2131267 0.47958562 0.6947816 0.3430568 -0.08301012 -0.4728838 0.3402653
0.26282948 0.4576434 0.3560528 0.3041181 0.6471209 0.27427238 0.1610894 0.47654685
0.66061443 0.6492262 0.17456831 0.32688445 0.57359207 0.4518062 -0.60333973 -0.25440362
0.30003467 0.14133863 0.2042533 -0.28967288 -0.25497887 0.37542447 0.03973422 0.413446
0.41640913 0.46367246 0.26441234 0.012433497 -0.3946422 0.25702438 0.33294356 0.5551915
-0.06928001 0.12980191 -0.5942375 0.2556395 -0.3948402 -0.2704153 0.2999038 0.32568532
0.3501664 0.3376511 0.26707044 0.87322813 0.28393266 0.37463152 0.40414217 -0.19289187
0.6933062 -0.029137189 0.40553373 0.31554633 0.3142697 -0.42144057 -0.046951946 -0.08371317
0.017890643 -0.0346047 0.029604696 0.023260871 -0.012146667 -0.054964747 -0.04259388 -0.083986074
0.06367002 0.021039667 -0.08520762 0.06393764 0.009613832 0.062819205 -0.123098455 -0.07605311
0.030337594 -0.042998083 -0.0927981 0.049188502 -0.0065748664 -0.029736433 -0.016641714 -0.058423962
0.0748928 -0.01154957 -0.047504842 0.048223488 0.030112393 -0.099285275 -0.043229632 -0.08236755
0.026085101 -0.059145972 -0.056412283 0.05573024 -0.014016673 -0.04183107 0.0742135 -0.03875036
0.04775799 0.031648453 -0.028849423 0.070484005 0.058597527 -0.03847774 -0.059563518 -0.060921278
0.07450464 0.09077479 0.08849217 0.050625652 -0.018810436 -0.10358181 -0.07034175 0.064497404
-0.00985004 0.0052580833 0.02147714 0.09861774 0.066633 0.040622868 0.061666004 -0.05321938
0.002783604 -0.029634222 -0.06480381 0.073191784 -0.027260803 0.094062775 -0.0034555143 0.07102031

l1.bias f4 [8]
00000000: a62d 383f c69d 823f f2c2 a2bd ce72 343f
00000010: 3234 6e3f f152 583f 4756 413f 7388 303f
0.71944654 1.0204399 -0.07947339 0.7048768 0.93048394 0.8450156 0.75522274 0.68958205

l2.weight f4 [8, 8]
00000000: b6fc 3b3e 381a bbbf 5707 943e f878 103f
00000010: d0cd 153f 23c4 173f 7844 d0bf ddd0 a43f
00000020: 8428 a83f 946c ad3f ade2 21bd 6b66 213e
00000030: 75d5 bbbf ffc2 b13e 798d 243f babc c7bf
00000040: c64b 61be b7f5 9e3f f46f 7dbe 4f7c aa3f
00000050: 2363 6e3e 754b 0abf 956f c93f 5c0a 85bd
00000060: 70e0 c73f c506 b73f 0591 a53d 2909 4abf
00000070: e83f c93f c547 2ebf 6f84 50bf 058e 3b3f
00000080: 797d a8bf 6886 c53f aeb5 9cbe 25d9 953f
00000090: e27e 353f b472 803f 46cd 4f3d bb0a 433f
000000a0: fa24 583f 95f0 653f 479f 503e 006d dcbf
000000b0: aefa 63bd 60f8 3b3f 569e 51bf b7a2 51bf
000000c0: c053 8e3e b17b 06bf 009f 8ebd 9b15 f7bd
000000d0: ead9 13bf d353 ec3f dba9 353e 861c 9c3e
000000e0: 6acb 82bf 71d5 b53f 3b0b 9e3d e49d f4be
000000f0: 6b56 53bf ffac 983f 1388 38bf 8c13 103f
0.1835812 -1.4617376 0.2891185 0.56434584 0.5851717 0.59283656 -1.6270895 1.287624
1.3137364 1.354876 -0.039522815 0.15761726 -1.4674517 0.34719083 0.6427837 -1.560447
-0.22001562 1.2418736 -0.24749738 1.3319186 0.23280005 -0.5402139 1.5737177 -0.064961165
1.5615368 1.4298941 0.08084301 -0.7892023 1.5722628 -0.6807826 -0.8145208 0.7326358
-1.3163291 1.5431643 -0.3060736 1.1706892 0.7089673 1.0035005 0.050732873 0.7618825
0.8443142 0.89820224 0.2037326 -1.7220764 -0.05565899 0.73425865 -0.81882226 -0.8188891
0.2779827 -0.5253249 -0.069639206 -0.12064668 -0.57754385 1.8463081 0.17740576 0.30490512
-1.0218327 1.4205762 0.07716986 -0.4777671 -0.8255374 1.1927794 -0.7208263 0.56279826

l2.bias f4 [8]
00000000: 296c 01be 31e1 143f 8eee 813e 4951 d93e
00000010: f93e e13d ec54 1a3f e7e3 2a3f f26a 0b3f
-0.12638916 0.58156115 0.25377315 0.42444828 0.10998339 0.6028583 0.66754 0.5446006

l3.weight f4 [11, 8]
00000000: f8c0 9fbe 4aba 723f 8cf7 37be 71d4 80bf
00000010: 1d23 2cc0 4abe 3d3e 322d 373f a7b4 1dbf
00000020: 9e48 893e 39a6 f3bf 515c 87bf 9fff 88bf
00000030: 38c8 443f 60b7 a6bf 8171 5fbd 5cf3 b43e
00000040: afd5 873f 2c3d 0dbf 1421 b6bf 5e3f 643f
00000050: 1fc1 ecbf c3e1 afbf bd4d 8fbf 5fc8 7abf
00000060: 9617 3cbd 2c3d 06bf 0353 0dc0 29fa 05c0
00000070: 7864 83be 1926 fb3e 14db fe3e 745c 4f3f
00000080: e943 9dbf fbc8 343f 11b3 86be b861 923e
00000090: 6068 d0bf bf5f 293f 9f29 0bc0 f50a 0ebf
000000a0: d9fa 97bf 2b87 6c3f 9514 653f b5b1 28bf
000000b0: e726 a6be e537 c0bf a04c 04c0 17c8 b5bf
000000c0: e03b 68bf 544f b2bf 4f38 b83d 21e2 763f
000000d0: e295 dd3c d591 c3bf 8a95 d7bf 8e2c 2ebf
000000e0: c963 273e fe82 f6bf 494f ebbf 511f e03e
000000f0: d95d 23bf b5eb e33d 6b63 723d fe0d 70be
00000100: 5c3a 20c0 4c90 c33d 1df9 bdbf 13aa 993d
00000110: e041 13bf 2d1d 4e3f 9e14 bfbd ec16 5b3d
00000120: 3594 efbf f11e 0ec0 c78a 1f3f 4dd0 d4bf
00000130: 1c0e 593f 9929 3ebf 57d5 b0bd f6cb 8cbf
00000140: 3a25 b1bf a414 ba3e 53fc 123e 5fdf e3bf
00000150: 0dc5 873c 20c3 55bf 2f18 d9be 8283 0c3f
-0.3120191 0.94815505 -0.17965525 -1.0064832 -2.6896431 0.18529621 0.7155334 -0.6160378
0.26813215 -1.9035102 -1.0575048 -1.0703009 0.7686801 -1.3024712 -0.054551605 0.35341918
1.0612086 -0.55171466 -1.4228845 0.8915919 -1.8496436 -1.3740772 -1.1195599 -0.9796199
-0.04592093 -0.5243709 -2.2081916 -2.0933936 -0.2566259 0.49052504 0.49776518 0.8100045
-1.228635 0.7061917 -0.26308492 0.28590178 -1.6281853 0.6616172 -2.1744153 -0.5548547
-1.1873428 0.9239375 0.8948453 -0.6589616 -0.32451555 -1.5017058 -2.0671768 -1.4201688
-0.9071636 -1.3930459 0.08995115 0.96438795 0.027049009 -1.527888 -1.6842511 -0.68036735
0.16346659 -1.9258726 -1.8383571 0.43773893 -0.63815075 0.11128942 0.059176844 -0.23442838
-2.503562 0.09549007 -1.4841648 0.07503142 -0.5752239 0.8051327 -0.09330104 0.053488657
-1.8717104 -2.2206385 0.6232113 -1.6626068 0.84787154 -0.74282223 -0.08634441 -1.0999744
-1.3839486 0.36343873 0.14354067 -1.7802542 0.016573453 -0.8350086 -0.42401263 0.54888165

l3.bias f4 [11]
00000000: dcce d93e b63d bbbe 2d91 6bbe 16d4 72be
00000010: 2ebe 15be a20a 8abe e652 1e3f 2823 08bd
00000020: 506d b0be 2235 fb3e d353 95be
0.42540634 -0.3657052 -0.23004599 -0.23713717 -0.14623329 -0.26961237 0.6184524 -0.033236653
-0.344584 0.49063975 -0.29165515
