data.pth (torch, 5911 bytes, 6 tensors)

l1.weight f4 [8, 71]
00000000: ea0e 02bf 772a 3a3e 9d51 5c3e 882e d9bd
00000010: 17a1 08bf 422a bebe b19c 46be 3ed0 783e
00000020: da41 cb3e 1d8d 1fbd 4819 05bf 946b 87be
00000030: 218f b63e f43f 223f 2101 f7bd 681e 7cbe
00000040: 7754 afbe 71e6 863c daac 13bd e147 12be
00000050: bc77 183f 0dfd f6be fef7 373f a355 18bf
00000060: 7aae bb3e 380f 2abf 9f6f 35bf c9ac 1ebf
00000070: 8ef1 94be c7ec 5b3c b4de 523c 4f4c 063f
00000080: 4465 8dbe b7d1 163f 8e51 8d3f 5d61 943e
00000090: 5771 db3e 993e 433e acb9 71be 550f 0abf
000000a0: c0f5 0cbd 6f8e 79bd 248b 433e 18d2 403f
000000b0: d408 9d3d c83d 513e fde2 473d 466b 6d3e
000000c0: c7d5 ea3e 78b1 6f3d 2c7b e8bd c173 83be
000000d0: 1818 6e3f 2607 a8be 2565 243e ce2c 3f3e
000000e0: 1311 c23e 7da5 413f 5321 383f de9e 163f
000000f0: b43d ac3e 9e7a 56be 0304 a63d 618a 87bd
00000100: d96a 173e f375 6ebe 6597 19be 5882 b0bd
00000110: 6817 363f b2ef 2fbc 9a3e cdbe 5804 77be
00000120: 520e 1f3f 5095 81be ecda d8be 6de0 babe
00000130: 94f4 dc3e 0436 613f be9b a0bd 92d0 933e
00000140: 1c5c a73e 558c 883f e801 653e 96f4 e53e
00000150: aa20 b13e ded0 8d3d 4065 05bd 43b9 dc3e
00000160: 78f9 09be e2ea 13be 9a6c ad3b db30 d3be
00000170: 078c 183f e2a6 773e 7fea 0e3f 2196 9b3d
00000180: 74bd 353f 32fc 2c3f 34d0 873e 6687 da3c
00000190: 3430 5dbe ee36 cb3d fa25 893e 28cc f33e
000001a0: a03e d3be 3ab9 60bf 8f33 fb3e 3119 7f3e
000001b0: 70bc c43d a6df 17bf 6620 163f 7ac9 eebc
000001c0: 08f8 f5bd 6e9f e13d 7bdb 723e ea3c ccbe
000001d0: d4fe c1be e5e8 21be 2b55 53be 9c13 48bf
000001e0: 3efd 3abe 6bfb 39be c203 94bd 222d d3be
000001f0: 57d0 273f f837 b0be 5f10 babd ca90 a43e
00000200: 22a0 c03e b886 833e ad6c 843c 5d17 e63d
00000210: 7844 203f 2dd7 70be 080c 093f 7ebc c33e
00000220: de81 99bd 335a 273f 75c9 5bbd 2f72 613e
00000230: 4164 4b3f d8c9 3e3f 994e 8fbe 6e86 1fbe
00000240: 4aef 683e c741 463f d034 8fbe c36c c2be
00000250: c78c 1bbf a336 7c3e e652 29be 7b28 80bd
00000260: 04d9 773f e349 cf3c b45a 8ebe f6a0 97be
00000270: 74c5 0f3e 9263 c33d eb0c 10bf 9f21 bd3e
00000280: 6abf cf3e dd58 a93e 7c1d 00be 831f 7c3e
00000290: d2b8 b0be 598c 1fbf 914d 00be ae5b 21bf
000002a0: 37c6 26bf 39d2 9cbe f5db 13bf 8826 bf3e
000002b0: f811 05be ae7e 12be 4efa 283f af77 33be
000002c0: 252d 5cbe cd2c 22be 67ee b5bd 594c d53d
000002d0: 72fe b2be 74c2 c1be 7527 de3e 510f 293f
000002e0: 900e c6bd 0345 e5be b1ce 3c3f 03fe 4e3f
000002f0: 99bc 7b3e 3d69 a73e be25 963f fac8 283e
00000300: 048d d53e 2ce0 603e f3e4 1e3b 401a 373f
00000310: 36f1 e03e b2eb c33e 6cf6 35be dadc 9cbe
00000320: 349a e1be c59c 0d3e c99e 7d3e b6a4 9dbe
00000330: b0be 913e 3c92 0ebe f8f6 09be 7801 533e
00000340: afdb 9cbe ce8f 913e 150b 05bf 95c8 673d
00000350: 86a8 31be c57c 493f d063 063f 1b0f 913e
00000360: cb55 a63e 319d 123f f801 b0be 837f 8a3e
00000370: 52c0 833e a303 fc3e a95f 41be 2f6f 24bf
00000380: 2958 56be 3c0a 55be 9522 ffbe fb77 81be
00000390: c02e 87be 4c53 a6be 3cb2 903e 803e 19bd
000003a0: 2e32 81bd ff61 51be 2892 a2be 3866 6e3f
000003b0: 476f 0fbf 16a6 873e 4d4b 0abf 64e7 02bf
000003c0: 8199 62bf 0c66 103f ad0c 743e 9120 c73e
000003d0: 89e2 c6be 92b0 a8be 5cbe 06be e8fc c5be
000003e0: e515 abbc ffb7 f5be 1f4a 333e 0ed6 ea3e
000003f0: 69fb 113f 6836 74bd 5993 643d f72f 68bd
-0.5080401 0.18180262 0.21515508 -0.10604578 -0.53370804 -0.37141615 -0.1939571 0.24298188
0.39698678 -0.038952935 -0.519917 -0.26449263 0.35656074 0.63378835 -0.12060762 -0.24620974
-0.3424413 0.016467305 -0.036053516 -0.14285232 0.595577 -0.48239937 0.7186278 -0.5950567
0.36656553 -0.6642947 -0.70873445 -0.619824 -0.29090542 0.013423151 0.012870479 0.5246019
-0.27616322 0.5891375 1.1040514 0.28980532 0.4285991 0.19066848 -0.23605984 -0.53929645
-0.034414053 -0.06092685 0.19096047 0.7532058 0.076676995 0.20433724 0.048800457 0.23185453
0.45866224 0.058518857 -0.11351618 -0.2567425 0.93005514 -0.32817954 0.16054209 0.18669435
0.37903652 0.7564314 0.7192585 0.5883616 0.33640826 -0.20945212 0.08106234 -0.066181906
0.14786853 -0.23287182 -0.14999159 -0.08618611 0.71129465 -0.0107383 -0.40086824 -0.24122751
0.62131226 -0.2530923 -0.42354524 -0.36499348 0.43155348 0.87973046 -0.078422055 0.28870064
0.3268746 1.0667826 0.22364008 0.44913167 0.34595233 0.06924604 -0.032567263 0.43110093
-0.13474071 -0.1444507 0.0052924873 -0.4124821 0.59588665 0.24184754 0.5582656 0.07596994
0.7099221 0.6757232 0.26526034 0.026675891 -0.2160042 0.099225864 0.26786786 0.47616696
-0.41258717 -0.87782633 0.49062774 0.24911954 0.09606254 -0.59325635 0.58643186 -0.029148806
-0.12010199 0.11016737 0.23716538 -0.39890224 -0.3788973 -0.15811498 -0.20637958 -0.7815492
-0.18260667 -0.18162315 -0.07227279 -0.4124537 0.65552276 -0.344177 -0.09085154 0.32141715
0.37622172 0.2568872 0.016165102 0.11234925 0.62604475 -0.23519583 0.53533983 0.38229746
-0.07495473 0.6537201 -0.05365892 0.22016214 0.7944985 0.7452674 -0.27989653 -0.15578625
0.22747532 0.7744412 -0.2796998 -0.37973604 -0.60761684 0.24630217 -0.1653553 -0.06257721
0.96815515 0.025303787 -0.27803576 -0.2961499 0.14040166 0.09540476 -0.5626971 0.36939713
0.40575725 0.3307561 -0.12511247 0.24621396 -0.34516007 -0.6232353 -0.12529589 -0.6303052
-0.651462 -0.30629137 -0.577575 0.37334085 -0.12995136 -0.14306137 0.66006935 -0.17526124
-0.21501596 -0.15837403 -0.08883362 0.10414953 -0.3495975 -0.37843668 0.43389478 0.66038996
-0.09670746 -0.44779214 0.73752886 0.8085634 0.24583663 0.32697478 1.1730268 0.16482916
0.4170915 0.21960515 0.002424535 0.7152443 0.4393403 0.3826576 -0.17769784 -0.30637246
-0.4406296 0.13829334 0.24767603 -0.30789727 0.28465796 -0.13922971 -0.13473117 0.20606029
-0.30636355 0.28430027 -0.51970035 0.056587774 -0.17349443 0.7870601 0.5249605 0.28331837
0.3248733 0.57271105 -0.34376502 0.2705041 0.25732666 0.49221525 -0.18884148 -0.6423215
-0.20932068 -0.20804685 -0.49831071 -0.2528685 -0.26402855 -0.32485425 0.28260982 -0.03741312
-0.06308399 -0.20447539 -0.31752133 0.93124723 -0.5602917 0.264939 -0.5402115 -0.51134324
-0.8851548 0.5640571 0.2383296 0.38892034 -0.38844708 -0.32947212 -0.13158554 -0.38669515
-0.020884464 -0.4799194 0.17508744 0.45866436 0.57024246 -0.0596222 0.055804584 -0.056686368

l1.bias f4 [8]
00000000: 461e 533f 5e28 a53f ff79 5b3f 1975 243f
00000010: c77d 013f 258a 233f fc97 733f 0b37 153f
0.8246807 1.2902944 0.85733026 0.64241177 0.50582546 0.63882667 0.95153785 0.58287114

l2.weight f4 [8, 8]
00000000: a525 513f 75ca 943f 9b5b 3f3f 587b b03f
00000010: 0ffd 623f b32a 8f3e 7888 ccbf 32d9 9ebf
00000020: 8a1b aa3f 7777 bcbd 8e4d 03bf dbc1 9b3f
00000030: 8529 ae3f fd9c aa3f ad68 a73f f777 de3d
00000040: 9750 cf3e 3655 be3d 8e52 d53f abf0 3f3e
00000050: e423 96be 08ac 5b3f fadb 39be dc94 2d3f
00000060: d83f 293f 1879 123f 2985 cbbd 3f87 8fbf
00000070: ee17 9cbf f887 893f 7328 9b3f 55f0 433f
00000080: d6e0 933d a1da 7c3f 3fdb a3bf 3967 9f3f
00000090: 85ca 783f d199 4ebf f818 033f e427 69be
000000a0: 28b9 d93e 0f56 82bf a489 873f 9868 983f
000000b0: 17dd 963f cebd 103f 0a7a 3b3f afa2 e9be
000000c0: 75d8 9bbe 0f5c ad3f 050e ab3e 6302 83be
000000d0: c805 ac3a ba85 40bf 899f 433f 852e 12bf
000000e0: 570c 4abf ed65 983f 999c 343d a174 2ebe
000000f0: 047e abbe 8ec6 3dbf 6b13 9f3f e2b5 ab3f
0.81698066 1.1624285 0.74749154 1.3787642 0.88667387 0.27962264 -1.5979147 -1.2410033
1.3289654 -0.092024736 -0.51290214 1.2168535 1.3606421 1.3329159 1.307882 0.10862725
0.40491173 0.092935964 1.6665819 0.18744151 -0.29324257 0.85809374 -0.1815032 0.67805266
0.6611304 0.57216024 -0.09937508 -1.1213149 -1.2194803 1.0744619 1.2121719 0.7653859
0.072206184 0.987711 -1.2801284 1.2453376 0.9718402 -0.80703455 0.51209974 -0.22769123
0.42524076 -1.0182513 1.058888 1.190692 1.1786221 0.5653962 0.7323309 -0.4563193
-0.3043858 1.3543719 0.33409134 -0.25587758 0.0013124282 -0.7520405 0.76415306 -0.57102233
-0.7892508 1.1906105 0.044094656 -0.17036678 -0.3349458 -0.74131095 1.2427801 1.3414881

l2.bias f4 [8]
00000000: 6aa0 203f 95fc cc3e 9c1b 9bbd f0ff 2d3f
00000010: 2c5a 963e a56f 1a3f 6ec1 273f 53aa 0a3f
0.6274477 0.40036455 -0.075736254 0.67968655 0.2936567 0.60326606 0.65529525 0.54166144

l3.weight f4 [10, 8]
00000000: 4ffe 95bf 7072 ad3e 6a87 903d 718b 143f
00000010: ce37 cbbf 0fa5 a5bf 664d 9dbf f838 913e
00000020: cd6f 013f 76e5 dabf f8d8 fb3e eb39 793d
00000030: 4bb0 63bf 32b4 90bf 524e 173f 6c1c fd3d
00000040: a6a4 abbf 9b6f 01bf c6f1 bdbf b1c1 2e3f
00000050: 84d5 b8bd e6cd a7bf 5601 4f3f 0dff 653f
00000060: 6f6e 8bbf cd55 de3e e0c6 fdbc 11ee 253f
00000070: 8edc fcbf 78a9 993e 4f41 c3bf 9b7c a7bf
00000080: 54fd 14bf 3e1e 093e 22df 0bc0 b69b 8cbf
00000090: bd44 8d3e b31a 923e 6646 19be e0aa 8e3e
000000a0: a090 b43e 2f96 29bf 95c9 92bf 4206 37bf
000000b0: 9453 093f 8db8 95bf b517 a73e 0ae2 483e
000000c0: 03a8 aebe ab31 e43d e6b6 9e3d 7c4b 183e
000000d0: 7ae5 42bf 6929 0e3d ef9e 5c3e f324 073d
000000e0: 6b77 8cbf 0796 79bf fe1e 753f 2357 683d
000000f0: 5b61 b4bf 7b9d 22bf 202b 8ebf e538 443f
00000100: 4f04 3cbe cc11 713d cee3 5a3f cbc3 6abf
00000110: 3bb5 e7bf e892 123f 061a b0bf 5831 78bf
00000120: 534c 4d3f ef88 543e 29cf 56bf defb 65bf
00000130: ce7f 93bd e032 16bd 9fc7 3ebf 5cdb c3bf
-1.1718234 0.3387637 0.07057078 0.5802527 -1.5876405 -1.2940997 -1.2289245 0.28363776
0.5056122 -1.7101276 0.49188972 0.06084625 -0.88940877 -1.1304991 0.5910388 0.12358937
-1.3409622 -0.5056092 -1.4839408 0.682643 -0.090251 -1.310971 0.80861413 0.898423
-1.0893077 0.43424836 -0.03097862 0.64816386 -1.9754808 0.30012107 -1.5254306 -1.3084902
-0.5819905 0.13390443 -2.185494 -1.0985019 0.27591506 0.28535995 -0.14968261 0.27864742
0.3526659 -0.66244787 -1.1467768 -0.71493924 0.53643155 -1.1696945 0.32635275 0.19617477
-0.34112558 0.11142286 0.07749729 0.14872545 -0.76131403 0.03470746 0.21545003 0.032994222
-1.0973943 -0.9749455 0.95750415 0.056723725 -1.409221 -0.63521546 -1.1106911 0.76649314
-0.18361019 0.058854863 0.8550385 -0.91705006 -1.8102182 0.5725541 -1.3757942 -0.9695029
0.80194587 0.20755361 -0.8390985 -0.89837444 -0.07202111 -0.036669612 -0.7452335 -1.5301318

l3.bias f4 [10]
00000000: 4550 bdbd 674e 49bd bf34 39be 2008 e93d
00000010: b55a 303d 3f0f afbe fdd2 31be bcdd 823e
00000020: 6e6e 58bd ecbb 043f
-0.09243826 -0.049147036 -0.18086527 0.11378503 0.043055255 -0.3419132 -0.17365642 0.25559795
-0.05283969 0.51849246
