data.pth (torch, 6871 bytes, 6 tensors)

l1.weight f4 [8, 91]
00000000: b752 8abe bbe5 e43c fb9e 613e 3d17 c03e
00000010: 5fcb 563f a4c4 953e 3093 8d3e cbf5 733f
00000020: 5067 18bf fa8a 8a3e e9d1 8a3e bd7a f6bd
00000030: fb0f 233f 29c3 62be a5e8 0b3b 6c0d 893e
00000040: bc0f 9d3e 7bc5 c13e 1de4 f0bd 1f7a 913e
00000050: 2efc bebe 1122 65bd e1ec 723e c15a 073f
00000060: 3743 51bc 5df0 1d3c f5cc debd 4856 6e3e
00000070: a415 4a3f fd37 8bbe db5d 13be eee4 1f3f
00000080: 011d 4b3f 8ec4 163f bc10 923d 4e43 7e3e
00000090: 0590 5f3e 6f34 f73e 12ab b63e 7631 1d3f
000000a0: d664 303f 22ff 8a3d d768 093f a068 7fbd
000000b0: 94a1 003f acf5 e8be c87b 62be e954 6abe
000000c0: c765 6e3e 8e0a a73e 511d c73e 797d c6be
000000d0: 039c 0d3d 0d1e e73e 4129 f13d 24e8 853e
000000e0: f133 71be 1c49 123f 6345 c73e af78 12be
000000f0: 9bef 2b3e 1aee 53be 27a7 c53e 59da 313e
00000100: 8dee 3cbe e34f b9be 5d44 ef3e 1460 bb3e
00000110: 48e8 5cbe f278 22be cb3d 9d3d aa4a b2be
00000120: 24d7 063f da91 93be 3681 78be d9c4 433e
00000130: 8a3e b13e d924 243f dd9f 853e 53d9 553e
00000140: 376f 873f d99b 803e cc01 a83e 09c7 063e
00000150: c785 51be 7db2 8cbe a087 32bd 22a2 b43e
00000160: 8544 9b3e 5446 5a3e 43fb 263d 693a 8c3f
00000170: b770 5c3f c4db 963d d682 96be 066e 063e
00000180: a797 fe3d 48c1 dcbe ef25 27bf 63bb 1a3f
00000190: 35bf 723e 4c75 103e 52f5 873b efaf 253f
000001a0: 015e d4bc 2604 14be 220d b13d acfa 3e3e
000001b0: 9c9a 7e3e 86dd 05bf 392c 98be 920f 18be
000001c0: a97c 0bbf ca9c 693e a2b4 e63e 5179 d73d
000001d0: 89d6 093f ff8f a5bf f422 9bbe a2d0 7d3e
000001e0: d918 003f f133 983c d75c f4be 7042 3c3f
000001f0: a858 28bf 7775 b73e 454b 103f 86ac 613e
00000200: 4681 3bbf dc88 a73c 1466 44bf a20c 46bf
00000210: 5a19 22bf 3e93 2bbf f9cc d0be 4ab4 b2be
00000220: 11e1 ce3e cdb1 3a3f 90f0 e43e 210b aa3e
00000230: 8e9b 0a3f cadd c43e f848 34be 2e5e 063f
00000240: ad51 b93e 454a 90bd 157a 94be 5a98 be3d
00000250: 29b3 bebe fba2 a8be 67bd 05bd a9f1 0e3f
00000260: 908b 123f 6f04 e03e aef3 023f dce1 c03e
00000270: 38f9 50be e449 903e f689 ba3e 59a2 1d3f
00000280: 4d76 f03e 77c1 1abc e6c4 6abd 4f57 bc3e
00000290: ba4f b43f 9ee9 843f 9335 863e 3d2b ab3b
000002a0: 79ff 463e 6035 583e 1ad1 6c3e da88 e73e
000002b0: 5967 453e 236a 3c3e cac3 863e 6790 20bd
000002c0: e9a0 3c3e a502 8cbd fd80 f23d bf65 c9bd
000002d0: 4dbc f83e bec8 1d3e fc08 48bf 5508 9abe
000002e0: 4111 12bf 6f18 cb3e 9885 86bd 83a7 523e
000002f0: f33e d13e f78d 8d3e fc2f b9be ffe6 113e
00000300: 92fe c53e 2cb8 553e 1bc9 e53e db04 833e
00000310: f18e f03e 3b7a 443e dc73 803e 703f c33e
00000320: 3f4d e33e 074a c43e 1e51 bb3d 2790 093f
00000330: aefd c63e 6885 263f 1a81 733e 6577 9a3e
00000340: e38a 5e3f dd9b 003f bcf9 f73e 187e f9be
00000350: 1224 d63d 8cf2 473f 2dea 963e 5c35 2b3f
00000360: ada9 ad3e 0b4e 663f abb4 ae3e 757c 2a3f
00000370: 570e 0e3f bb01 193f 10ee 1f3f 0acf 493f
00000380: 16ed 1d3f 39f9 e83e 973c 2b3f 9c66 79be
00000390: 1c1c 2abf 2195 be3d 20af 343e bf2a cabe
000003a0: 9bc4 9c3e b859 d8bb 801d 12be dcf7 d53d
000003b0: 3a0a d83d c66f c83e 8e3c 503e 027b 6cbe
000003c0: 173c e63e e4e2 613e df7a 683e 4327 2c3c
000003d0: ad34 ae3e 5e71 a53e af8a ad3e af15 1cbb
000003e0: 32df 973e 0af7 ea3e 6e99 c1be ef69 de3e
000003f0: 2821 633e 6461 f5bd 400f be3d 0eab 1bbf
-0.2701623 0.027941575 0.22033302 0.3751773 0.8390407 0.29251587 0.27651358 0.95296925
-0.5953264 0.27059156 0.27113274 -0.12035129 0.6369626 -0.2214476 0.0021348384 0.26768053
0.30676067 0.37845978 -0.11762259 0.28413484 -0.37301773 -0.05594069 0.23723175 0.52872854
-0.012772373 0.009639827 -0.10878936 0.23275101 0.7893927 -0.27191153 -0.14391272 0.62458694
0.7934113 0.5889367 0.07132098 0.24830362 0.21832283 0.4828219 0.3567739 0.61403596
0.68903863 0.06786944 0.536756 -0.062355638 0.5024655 -0.45499933 -0.22117531 -0.22883953
0.23281012 0.3262524 0.38889554 -0.38767603 0.034572612 0.45140114 0.11775447 0.26153672
-0.2355497 0.57142806 0.38920125 -0.1430385 0.16790621 -0.20696297 0.3860409 0.1736845
-0.18450375 -0.3619376 0.46731845 0.3659674 -0.21572983 -0.1586645 0.07677802 -0.3482259
0.5267203 -0.28822213 -0.2426804 0.1911806 0.34618026 0.64118725 0.26098529 0.20883684
1.0580815 0.25118902 0.3281387 0.13161863 -0.20461188 -0.27479926 -0.043586373 0.35279948
0.30325714 0.2131589 0.040766966 1.0955325 0.8610949 0.07366136 -0.29396695 0.13127908
0.12431269 -0.43116212 -0.6529226 0.6044218 0.23705752 0.14107245 0.0041491175 0.6472158
-0.02592373 -0.14454708 0.08645083 0.18650311 0.24863666 -0.5229114 -0.2972124 -0.1484969
-0.5448709 0.22813717 0.45059687 0.10521186 0.5384298 -1.2934569 -0.30300105 0.24786618
0.50037915 0.018579455 -0.4772708 0.73538876 -0.6576028 0.35831806 0.5636485 0.22038469
-0.7324413 0.020451002 -0.7671826 -0.77363026 -0.63319933 -0.6702155 -0.40781382 -0.34903175
0.40406087 0.7292755 0.44714785 0.33211616 0.5414361 0.38450462 -0.1760596 0.52487457
0.36195126 -0.07045416 -0.2899939 0.093064025 -0.37246063 -0.32936844 -0.03265133 0.55837494
0.57244205 0.43753383 0.51153076 0.37672317 -0.2040757 0.28181374 0.3643338 0.6157585
0.46965256 -0.00944554 -0.057316683 0.3678536 1.4086831 1.0383794 0.2621275 0.0052236603
0.19433393 0.21114111 0.23126641 0.45221597 0.19277705 0.18399863 0.2632125 -0.039200213
0.18420757 -0.06836442 0.11841009 -0.0983386 0.48581162 0.15408608 -0.7813871 -0.30084482
-0.5705758 0.3966708 -0.0656845 0.20571713 0.4086834 0.27647373 -0.36169422 0.14248274
0.38670784 0.20871037 0.44879994 0.25589642 0.46984056 0.19187252 0.25088394 0.38134336
0.44394872 0.38337728 0.09146331 0.53735584 0.38865417 0.6504731 0.23779717 0.30169216
0.86930674 0.5023783 0.4843272 -0.48729014 0.104560986 0.7810447 0.29475537 0.66878295
0.33918515 0.89962834 0.34122214 0.66596156 0.5549063 0.59768265 0.6247263 0.7883154
0.6168989 0.45502642 0.6688933 -0.24355549 -0.6644914 0.09305788 0.1764493 -0.39485738
0.30618748 -0.006602492 -0.14269066 0.10447666 0.105488256 0.39147776 0.203356 -0.23093799
0.4496772 0.22059208 0.22703122 0.010507408 0.34024563 0.32313055 0.3389487 -0.0023816635
0.29662472 0.458916 -0.3781237 0.43440196 0.22180617 -0.119814664 0.092802525 -0.60807884

l1.bias f4 [8]
00000000: a8f7 833f 99c3 5f3f b634 653f f1f0 fe3e
00000010: 5cbc f03e 9617 2f3f eeaa 0b3f a6b4 f53e
1.0309954 0.87407833 0.89533556 0.497932 0.47018707 0.68395364 0.54557693 0.47989386

l2.weight f4 [8, 8]
00000000: 8c3a dbbd dd5c 81be d832 9dbe 7106 9bbd
00000010: ac25 2ebd a180 f03d 46ee 93be 27b4 503e
00000020: 9632 fb3d eec0 fc3f 4a04 aabe 6e5e 8a3f
00000030: 1cf2 5a3f ceb2 e9bd fa0b 0c3e ec28 bf3f
00000040: e81e 5a3e 3aa4 fbbb 1e57 0abf 2b7b bb3f
00000050: 8d4f 1c3f 18ed 903f aba3 853f c28e d2be
00000060: da5c d63f 66c0 5e3f 7dea d43f 3d21 76bf
00000070: d0a4 9abf c70c edbe ce8f a1be 498a 0ebe
00000080: 81d6 7cbe c0ad 49be 0ceb 7c3f e5e5 9dbf
00000090: 8092 c03f 2770 a03f 83ec c6be 0754 b73f
000000a0: ccdf 593f bbd6 56bf c64b 9d3f 0f9e 72bf
000000b0: f3a2 cf3f 668f 003f 14e8 b3bf 3261 d4be
000000c0: 9c30 dc3f e1aa 36bf 39bc 903f 3276 0a3f
000000d0: 3b1c 3abf 122b b13f 5d30 d63f 9d9c 28bf
000000e0: a1ea 693f 83e8 513f 2cbb f13e 794c ae3e
000000f0: 5ff2 853f 87e7 59bf 5cd0 93bf 213d 00bf
-0.10704526 -0.25266162 -0.30702853 -0.07569588 -0.042516395 0.11743284 -0.28892726 0.20381223
0.12265508 1.9746377 -0.33206397 1.0810068 0.8552568 -0.114110574 0.13676444 1.4934363
0.21300852 -0.0076794894 -0.5403918 1.4646963 0.61058885 1.1322355 1.0440573 -0.4112454
1.6747086 0.87012327 1.663406 -0.9614447 -1.2081547 -0.4629881 -0.31555027 -0.13919939
-0.24691202 -0.19695187 0.98796153 -1.2335783 1.5044708 1.2534226 -0.3885232 1.4322518
0.8510711 -0.839214 1.2288749 -0.9477243 1.6221603 0.5021881 -1.40552 -0.41480404
1.7202334 -0.7135449 1.1307441 0.540866 -0.72699326 1.3841269 1.6733509 -0.6586397
0.9137364 0.8199541 0.47213113 0.3404272 1.0464591 -0.8511891 -1.1547961 -0.50093275

l2.bias f4 [8]
00000000: 4d69 56be d1a3 043f bc4f a0be f083 573f
00000010: 939a 0bbe d375 0c3e c196 603f 3a3a afbe
-0.20938607 0.51812464 -0.31310833 0.84185696 -0.13633184 0.13716821 0.8773003 -0.3422411

l3.weight f4 [11, 8]
00000000: 130b f4bd a2f0 e8bd 0241 6b3e a5dd e6bf
00000010: 0ce6 4ebe 5db3 d23c f948 a5be e08f 85be
00000020: ed30 88be 56cc b2bf 0e9b 0bbf bd66 1abf
00000030: f978 2e3f 7b7f 063f a5aa 0fbe 67d7 a6bf
00000040: 8c56 61be a6da 083e d03b 05c0 423f e2bf
00000050: e8f4 073f 4381 8a3e 2ba4 a5bf 1a27 d7bf
00000060: b4bf 1cbd dc48 ec3d 9218 a5bf b01d b93e
00000070: 41e0 343e cacd 36bf 651a 7cbf 45af 0fbf
00000080: 4bf0 23be 763f 073f 066b 273f 4ad6 e0bf
00000090: cb50 f1bf 0316 abbf b985 23bf 06fe 09be
000000a0: 8acc 903e 3981 fbbc d8a9 9abf c6ac 2f3f
000000b0: 6ffb 09c0 e032 e4bf 0821 d03e 9f1f 053e
000000c0: bc66 08be df95 e1bf 3dbf 47bf 94f5 f73e
000000d0: 4d3b 29bf af23 603e 025c 653f d3bf c8bf
000000e0: f686 423e 2726 06bf 35a6 643f 4b4d c3be
000000f0: 16d0 16c0 1f5e 52bf 64c4 1b3f ba14 dabf
00000100: 5687 aebe 2bc7 f43e c7d1 093d 06ba 57bf
00000110: cd8d b8bd 6bb5 01c0 3558 d3bc 7931 18c0
00000120: bcbe 033e 89e3 6d3f 1239 6fbf 25e3 5b3e
00000130: 0560 88bf 623f 0ac0 0b4d 09c0 68a1 2d3e
00000140: 25bd d8bd 997c 9abf 74b9 abbf 07f7 103e
00000150: cedf 84bf 5154 023f a22f c0bd 0a2f 9c3f
-0.11916175 -0.11374022 0.22974017 -1.803639 -0.20204943 0.025720293 -0.32282236 -0.2608633
-0.26599827 -1.3968608 -0.5453347 -0.60313016 0.6815334 0.5253827 -0.1402994 -1.3034486
-0.22005671 0.13364658 -2.0817757 -1.7675555 0.5310807 0.27051744 -1.2940725 -1.6808808
-0.03826876 0.11537334 -1.2898123 0.36155462 0.17663671 -0.7140776 -0.98477775 -0.56126815
-0.16009633 0.5283121 0.6539768 -1.7565396 -1.8852781 -1.3366092 -0.6387592 -0.13475809
0.2828105 -0.030701267 -1.2083082 0.68623006 -2.1559713 -1.7828026 0.406502 0.13000344
-0.1332044 -1.7623862 -0.7802618 0.4842955 -0.6610611 0.21888612 0.8959352 -1.568354
0.18996796 -0.52401966 0.8931611 -0.38144907 -2.3564506 -0.8217487 0.60846543 -1.7037575
-0.34087628 0.47808203 0.033647325 -0.84268224 -0.09011421 -2.0266979 -0.025798896 -2.3780196
0.12865728 0.92925316 -0.9344646 0.21473368 -1.0654303 -2.1601186 -2.1453273 0.16956103
-0.105829515 -1.2069274 -1.3415971 0.14156733 -1.03808 0.50909907 -0.09384085 1.2201855

l3.bias f4 [11]
00000000: 1810 0dbe 2e11 64be 9497 7a3e ba9a f0be
00000010: de9e 3cbe 19d6 6abe c7b3 383e f40e c9be
00000020: 12be 8d3e 7107 2e3f 5c12 03bd
-0.1377567 -0.22272179 0.24471885 -0.46993047 -0.18419978 -0.22933234 0.1803733 -0.3926922
0.27684075 0.67980105 -0.03199993
