data.pth (torch, 5847 bytes, 6 tensors)

l1.weight f4 [8, 69]
-0.0676902 0.90393335 0.03860455 0.63600755 -0.023020439 -0.12649608 0.09081682 -0.37577683
0.54656136 0.44650084 0.73810744 0.6298684 0.018031703 -0.32804552 -0.33775967 0.2751172
0.3845912 -0.10948689 0.8284399 -0.08502743 -0.07083623 -0.38514057 -0.16504803 0.47560802
0.74088824 -0.24727772 -0.566856 -0.10004909 -0.14079927 -0.13744058 -0.08824132 0.1224616
-0.028915938 0.3000245 1.0636292 0.2200178 0.7203305 -0.12890777 -0.44430035 -0.243153
0.6860495 0.7209468 -0.0633855 -0.09077428 0.020479118 0.36407274 0.29358268 0.37029198
0.7362435 0.5168697 0.5035683 -0.1729796 0.4762871 0.5023425 -0.36179867 0.71053874
0.5651609 0.09620992 0.7245959 -0.8664882 -0.11979098 0.07378608 0.5534628 -0.23541576
0.35657603 0.3623543 0.57918465 0.46218804 0.19944735 -0.30648813 -0.426703 -0.1496973
0.535089 0.44926783 0.28591895 -0.13230558 -0.78758466 0.7356146 0.40262526 0.41108513
0.44910032 0.3956608 0.076673396 -0.95925164 0.0781462 0.07523261 0.22827597 -0.21624586
0.0071828044 0.54722023 -0.7876476 0.6275328 -0.096492834 -0.5503523 0.62131995 0.43816558
0.49395043 0.5660799 0.70458204 0.48491088 0.5416974 0.40504488 0.58924603 -0.20667243
0.061469078 -0.27189294 -0.42224276 -0.1236156 0.07877126 0.5195416 -0.27337152 0.2717481
0.1223244 0.108144894 0.47026578 0.09097686 0.6486813 0.33411434 0.28388143 0.42490008
-0.40443864 0.5547196 -0.11634301 -0.06875795 -0.08119271 0.03912045 0.121379875 -0.21676144
-0.7247514 -0.37009838 0.40510815 0.06553873 0.10597407 0.6406596 -0.066605166 0.2795272
0.03881647 0.20772691 -0.16948274 0.5082396 0.9162275 -0.57177836 -0.16980514 -0.48082548
0.12719184 0.4960942 0.21363853 -0.55092394 -0.48876697 -0.328813 -0.2023606 -0.04848544
1.110649 0.34103736 0.5570282 -0.26006252 0.57161033 -0.021009674 -0.43236253 0.45613366
-0.5202102 0.43649924 1.1958656 -0.44796437 -0.7728432 -0.61250263 -0.64376837 -0.85524595
-0.60031146 -0.11826696 0.121387936 0.17231743 0.60876995 0.42271537 0.23469059 0.17435533
-0.17390716 -0.27250436 -0.64399505 0.60820365 -0.1779862 -0.23135255 0.53945065 -0.010744955
0.42179102 0.3173271 -0.615191 -0.21053867 -0.21495791 0.35033163 0.5189715 0.46837488
-0.05331127 0.6032182 0.44567427 -0.43836477 0.73781085 -0.7587507 0.01145693 -0.043420553
0.7119624 -0.010162227 -0.22624402 0.8320435 -0.36267257 0.28528687 0.64129764 -0.2708373
-0.10548865 0.67083806 -0.6003168 0.22434013 0.2726951 -0.08297053 -0.2351698 0.6344973
-0.27671504 0.14226021 -0.18706776 0.2478349 -0.1458006 0.36734828 0.15441662 0.6134909
0.4493002 0.011433317 -0.17398661 0.5570119 -0.3572347 0.35595143 0.5462296 1.1918148
0.39323956 -0.32534853 0.47287786 0.53317237 0.061329365 0.3871907 0.0519049 0.24162851
0.47185406 -0.09449318 0.32245448 -0.33163738 -0.3411882 -0.3136741 -0.09170517 -0.51965344
0.29824865 0.26285726 -0.11459064 0.15212746 0.4396222 0.24120432 0.4815424 0.10926096
00000000: 29a1 8abd 2d68 673f ce1f 1e3d 64d1 223f
00000010: 5c95 bcbc 3088 01be 2bfe b93d d265 c0be
00000020: 72eb 0b3f c29b e43e 9cf4 3c3f 0e3f 213f
00000030: 39b7 933c 95f5 a7be d6ee acbe 29dc 8c3e
00000040: 23e9 c43e aa3a e0bd a314 543f dc22 aebd
00000050: 9612 91bd 2531 c5be 5a02 29be e582 f33e
00000060: daaa 3d3f 5f36 7dbe 7a1d 11bf 8ae6 ccbd
00000070: af2d 10be 39bd 0cbe ddb7 b4bd 26cd fa3d
00000080: 1ee1 ecbc d09c 993e 0025 883f 594c 613e
00000090: 9467 383f 6600 04be 567b e3be 1afd 78be
000000a0: f1a0 2f3f f88f 383f 42d0 81bd dee7 b9bd
000000b0: d3c3 a73c be67 ba3e 7850 963e e996 bd3e
000000c0: 747a 3c3f 9351 043f dae9 003f 9021 31be
000000d0: e7db f33e 8599 003f ad3d b9be dee5 353f
000000e0: 62ae 103f b509 c53d 1e7f 393f 2cd2 5dbf
000000f0: f954 f5bd 281d 973d bdaf 0d3f d410 71be
00000100: 2291 b63e 8186 b93e 7245 143f e9a3 ec3e
00000110: ed3b 4c3e 03ec 9cbe d178 dabe 404a 19be
00000120: 98fb 083f 6f06 e63e f863 923e 1d7b 07be
00000130: 269f 49bf 3d51 3c3f e624 ce3e c079 d23e
00000140: 7af0 e53e 0d94 ca3e f106 9d3d 8491 75bf
00000150: 1d0b a03d 8e13 9a3d 2dc1 693e 8e6f 5dbe
00000160: bb5d eb3b a016 0c3f 46a3 49bf fda5 203f
00000170: 099e c5bd e3e3 0cbf d30e 1f3f 3d57 e03e
00000180: 12e7 fc3e 9dea 103f 7d5f 343f 3d46 f83e
00000190: aeac 0a3f 0b62 cf3e d4d8 163f f0a1 53be
000001a0: 00c7 7b3d 8d35 8bbe 3430 d8be 2d2a fdbd
000001b0: d452 a13d ae00 053f 5af7 8bbe 9122 8b3e
000001c0: 3785 fa3d 127b dd3d adc6 f03e 1352 ba3d
000001d0: fa0f 263f 0911 ab3e e858 913e 818c d93e
000001e0: 9512 cfbe 1b02 0e3f 3e45 eebd f8d0 8cbd
000001f0: 5d48 a6bd c43c 203d 0396 f83d b6f6 5dbe
00000200: 4f89 39bf 897d bdbe 566a cf3e 2b39 863d
00000210: ef08 d93d 4402 243f 4a68 88bd 301e 8f3e
00000220: 05fe 1e3d 5db6 543e e28c 2dbe fe1b 023f
00000230: e38d 6a3f 1160 12bf 66e1 2dbe c22e f6be
00000240: 943e 023e 0f00 fe3e 0fc4 5a3e 5a09 0dbf
00000250: aa3f fabe 2d5a a8be 9e37 4fbe ab98 46bd
00000260: bf29 8e3f 739c ae3e 6699 0e3f ea26 85be
00000270: 0e55 123f 7b1c acbc 9f5e ddbe 5a8a e93e
00000280: 7f2c 05bf d47c df3e 2012 993f 965b e5be
00000290: 0dd9 45bf f9cc 1cbf 01ce 24bf 66f1 5abf
000002a0: 03ae 19bf f335 f2bd 3d9a f83d fb73 303e
000002b0: 59d8 1b3f 266e d83e bb52 703e 348a 323e
000002c0: b814 32be b185 8bbe dcdc 24bf 3cb3 1b3f
000002d0: 0442 36be afe7 6cbe 7019 0a3f 9c0b 30bc
000002e0: fef4 d73e b378 a23e 287d 1dbf 7397 57be
000002f0: ed1d 5cbe ab5e b33e 51db 043f d5ce ef3e
00000300: eb5c 5abd 826c 1a3f 6b2f e43e 5971 e0be
00000310: 2ce1 3c3f 7c3d 42bf d9b5 3b3c c0d9 31bd
00000320: 2b43 363f 787f 26bc 83ac 67be ce00 553f
00000330: 38b0 b9be 1f11 923e 152c 243f 30ab 8abe
00000340: 6f0a d8bd 0bbc 2b3f 5dae 19bf 6bb9 653e
00000350: b19e 8b3e 74ec a9bd 5ad0 70be 6a6e 223f
00000360: 98ad 8dbe a9ac 113e b18e 3fbe 6fc8 7d3e
00000370: c14c 15be 1315 bc3e 641f 1e3e bd0d 1d3f
00000380: ad0a e63e cf52 3b3c 8c29 32be 5598 0e3f
00000390: 77e7 b6be 443f b63e b4d5 0b3f 638d 983f
000003a0: b256 c93e 1594 a6be 0c1d f23e fc7d 083f
000003b0: 8034 7b3d dc3d c63e 3c9a 543d 776d 773e
000003c0: db96 f13e a485 c1bd c118 a53e 60cc a9be
000003d0: 38b0 aebe e499 a0be eccf bbbd 0208 05bf
000003e0: 0cb4 983e 3a95 863e 7fae eabd 4dc7 1b3e
000003f0: 2916 e13e 44fe 763e ba8c f63e 36c4 df3d

l1.bias f4 [8]
0.5375066 0.78761816 0.69230783 0.75546575 1.0133554 0.466316 0.5133033 1.1361771
00000000: 089a 093f 58a1 493f 163b 313f 3466 413f
00000010: a1b5 813f f9c0 ee3e d867 033f 406e 913f

l2.weight f4 [8, 8]
0.52688336 1.6158903 -0.40902406 0.4716802 1.5654087 -0.5483179 -0.04514355 -0.26313335
-0.8651055 1.0855129 -0.404629 -0.023765909 1.4929813 0.16366063 1.874145 1.0439506
0.9242178 1.4909441 0.06499149 1.0559055 0.1485735 -0.61995393 -1.049407 0.20418349
0.27085373 -0.13779515 -0.036622733 -0.044891864 -0.120070174 -0.1006425 -0.027711332 -0.17116821
0.93236244 -0.5563964 1.6271179 1.3539948 -0.83684933 1.4783043 1.2943277 -0.34089327
1.0526702 0.20719971 -0.1554165 -0.0844722 0.9872297 -0.45822662 -0.42672488 -0.90536374
0.21436888 -1.1198627 0.31811008 -0.24881281 0.41343787 1.4535851 -0.33013618 2.0866954
0.60341 0.10127583 1.0803443 1.3504138 -0.14439468 0.58097523 -0.32914385 -1.1329142
00000000: d4e1 063f 7ed5 ce3f 9a6b d1be 1180 f13e
00000010: 505f c83f 905e 0cbf 71e8 38bd 6ab9 86be
00000020: 8e77 5dbf 16f2 8a3f 882b cfbe b9b0 c2bc
00000030: 031a bf3f a796 273e fce3 ef3f 2ca0 853f
00000040: 8a99 6c3f 42d7 be3f 421a 853d e927 873f
00000050: a723 183e 4db5 1ebf f852 86bf 7a15 513e
00000060: 57ad 8a3e 2c1a 0dbe b801 16bd 88e0 37bd
00000070: 5ae7 f5bd a81d cebd e002 e3bc b846 2fbe
00000080: 4eaf 6e3f ff6f 0ebf 6645 d03f b44f ad3f
00000090: c23b 56bf 1339 bd3f 88ac a53f 9089 aebe
000000a0: e6bd 863f 292c 543e 8125 1fbe c3ff acbd
000000b0: 16bb 7c3f ae9c eabe af7b dabe ebc5 67bf
000000c0: 8483 5b3e a957 8fbf 53df a23e c9c8 7ebe
000000d0: 21ae d33e 140f ba3f 9c07 a9be 6b8c 0540
000000e0: 1479 1a3f b469 cf3d b948 8a3f 5cda ac3f
000000f0: 33dc 13be cbba 143f 8b85 a8be 5503 91bf

l2.bias f4 [8]
0.41966873 0.71918446 0.43473214 -0.20138788 0.47215056 -0.28734952 0.4443497 0.18926144
00000000: d2de d63e 791c 383f 3695 de3e a038 4ebe
00000010: b8bd f13e 7a1f 93be ce81 e33e c0cd 413e

l3.weight f4 [10, 8]
-1.8469805 -0.3040723 -1.1706929 -0.11191918 0.6579188 -0.8156706 0.015906101 0.16457327
0.49042213 0.6980681 -1.0567353 -0.3416858 -0.40181506 -0.7345407 -1.6684413 -1.038677
-0.86433244 -2.1397786 0.47160685 -0.13172652 0.50391936 -0.9242434 -0.24717787 0.619813
-1.4783477 -1.6589221 -0.08773582 -0.23499587 0.34805086 -0.9948146 0.79962534 -0.19304444
-2.1211514 0.39232218 -0.89879423 -0.07687795 0.40530616 -0.37912604 0.66095483 -1.9386206
0.3479996 0.29721966 0.99365276 0.20921919 -1.2762382 -0.9362612 -0.4097295 -1.454507
-0.2363291 -0.061319407 -0.27549258 0.21359286 0.06693727 0.362 0.15387017 -0.23275596
0.47691214 -1.0530316 0.63348055 -0.21100768 0.43387175 0.36636803 -1.5737219 0.10676312
0.77653617 -0.51993096 0.45044693 0.00834313 -0.93619865 1.2169448 -1.4929146 -0.42513624
-0.35133696 0.63034254 -1.4231359 -0.28526938 -1.3213849 -1.0733696 0.66770357 -1.0015808
00000000: db69 ecbf 5daf 9bbe 44d9 95bf e235 e5bd
00000010: 5e6d 283f cacf 50bf 834d 823c e585 283e
00000020: 9c18 fb3e 97b4 323f 1a43 87bf 71f1 aebe
00000030: b4ba cdbe dc0a 3cbf 7c8f d5bf 5ef3 84bf
00000040: e444 5dbf 22f2 08c0 7476 f13e 51e3 06be
00000050: dc00 013f 379b 6cbf 321c 7dbe 11ac 1e3f
00000060: 7f3a bdbf 8f57 d4bf d6ae b3bd c2a2 70be
00000070: b933 b23e 2bac 7ebf 3fb4 4c3f 71ad 45be
00000080: f2c0 07c0 74de c83e 6117 66bf 3072 9dbd
00000090: 4a84 cf3e cf1c c2be 5634 293f b824 f8bf
000000a0: 012d b23e 2d2d 983e 0760 7e3f 8e3d 563e
000000b0: c65b a3bf d0ae 6fbf 11c8 d1be 492d babf
000000c0: 4100 72be 0f2a 7bbd 5d0d 8dbe 16b8 5a3e
000000d0: 6816 893d 1058 b93e 2490 1d3e 9457 6ebe
000000e0: d42d f43e bdc9 86bf c82b 223f 6612 58be
000000f0: 7024 de3e 9794 bb3e b86f c9bf 9fa6 da3d
00000100: 13cb 463f 321a 05bf fba0 e63e a0b1 083c
00000110: b7aa 6fbf d9c4 9b3f d317 bfbf 75ab d9be
00000120: 70e2 b3be 215e 213f 5129 b6bf d40e 92be
00000130: 2423 a9bf 2d64 89bf 9fee 2a3f cd33 80bf

l3.bias f4 [10]
-0.23133442 0.33297217 -0.3335981 -0.5549218 0.047204357 0.410872 -0.072289586 -0.06727222
-0.037527833 -0.02518342
00000000: eee2 6cbe 547b aa3e 5fcd aabe 5b0f 0ebf
00000010: 5b59 413d d15d d23e 900c 94bd 05c6 89bd
00000020: c9b6 19bd 764d cebc
